model/fr_eye.onnx (onnx, 207130 bytes, 38 tensors)

156 f4 [8, 1, 3, 3]
2.4783213 -1.9309334 -1.5562316 -4.4860206 1.9419233 -2.6254056 -0.6810941 1.7953671
1.2867719 4.889114 -6.8832383 0.204503 1.51847 6.1324434 -1.416693 -0.19641633
4.6183043 -6.2065415 -1.1407682 1.5987854 -0.95391995 -2.1184452 -1.0900698 0.5837924
-1.610425 0.09960499 -0.5007191 0.5813842 0.7278682 0.14178172 -0.12477746 0.97056144
0.65404224 1.2254483 0.63225484 0.23695873 0.6578228 -4.260528 -4.7694983 -0.23043154
-1.4623952 2.7124221 3.4487255 2.8710845 0.714657 -2.8459864 -3.5493572 -0.30823803
2.1641812 2.770316 2.2985358 1.0136974 1.6659865 0.17996904 1.167959 -3.158929
-1.3578839 -1.6747148 1.2486899 2.5454605 5.712378 -3.0307755 -5.2948833 2.3178294
-0.93173724 1.6518109 1.5596232 0.3338821 -0.7399595 0.3340034 -0.15136218 0.6140495
00000000: d19c 1e40 d328 f7bf 9932 c7bf 7b8d 8fc0
00000010: f190 f83f a506 28c0 2f5c 2ebf 97ce e53f
00000020: f1b4 a43f 9f73 9c40 7d43 dcc0 3c69 513e
00000030: 3a5d c23f fa3c c440 3256 b5bf 5d21 49be
00000040: 26c9 9340 fd9b c6c0 b104 92bf 00a5 cc3f
00000050: 1934 74bf 9b94 07c0 6887 8bbf 6b73 153f
00000060: 6822 cebf b3fd cb3d 202f 00bf 98d5 143f
00000070: 9255 3a3f 3a2f 113e 538b ffbd b776 783f
00000080: 506f 273f 7ddb 9c3f 74db 213f 4fa5 723e
00000090: 1367 283f 3f56 88c0 bb9f 98c0 3ff6 6bbe
000000a0: c42f bbbf 5398 2d40 ebb7 5c40 d9bf 3740
000000b0: c3f3 363f a424 36c0 ab28 63c0 60d1 9dbe
000000c0: f281 0a40 db4c 3140 361b 1340 d6c0 813f
000000d0: 0c3f d53f ce49 383e ae7f 953f e52b 4ac0
000000e0: 24cf adbf 0e5d d6bf 12d5 9f3f d3e8 2240
000000f0: cdcb b640 3af8 41c0 af6f a9c0 5157 1440
00000100: 5586 6ebf 8a6e d33f bca1 c73f 98f2 aa3e
00000110: fc6d 3dbf 7e02 ab3e b0fe 1abe 5932 1d3f

157 f4 [8]
2.0156298 -1.348257 2.764001 -2.7004898 0.12531213 -1.8620954 2.0804276 -2.6401296
00000000: 1400 0140 af93 acbf 64e5 3040 d3d4 2cc0
00000010: d351 003e 2459 eebf ba25 0540 e2f7 28c0

159 f4 [8, 8, 3, 3]
0.24673061 -0.3132161 0.095816754 0.035117842 0.19445434 0.14150508 -0.17316154 -0.40831813
-0.24485706 -0.38955837 0.3372295 -0.40659663 -0.4557251 -0.17396396 -0.22888774 -0.11714341
0.47554746 -0.38982022 0.37024015 -0.37393874 0.10533368 0.36428034 -0.052767508 -0.5096179
0.28297478 0.029519835 -0.19743252 -0.03458504 -0.13125776 0.20334743 0.11457259 0.358684
0.5350049 -0.059597395 0.0733956 -0.08925755 0.23782799 0.14316154 -0.3025322 -0.1268787
0.28313324 -0.30812925 -0.6491066 -0.3392308 0.4657576 -0.049346007 -0.17688508 -0.18526179
-0.49808434 0.11962723 -0.33059865 -0.30290622 -0.17195638 -0.465157 -0.06657406 0.38971588
0.52733797 -0.4989635 -0.047923557 0.3024149 -0.5178319 -0.03952703 -0.22815336 0.3800647
0.28263143 -0.52974963 0.22440454 -0.04675305 -0.3106047 -0.087997146 0.43854484 -0.35470283
0.07665587 -0.23603992 -0.17768194 -0.05850977 -0.22157031 -0.22514951 0.1774819 -0.0050855167
-0.073978275 0.18191142 -0.0001079764 -0.07586773 0.21195847 -0.0014434952 0.07290913 -0.15118377
0.11011658 0.15116554 -0.2809097 -0.060856383 -0.017636787 -0.052253548 0.028296553 -0.17887096
0.186123 0.008375843 0.07189814 0.16346623 0.05062874 0.12342044 -0.053989127 0.079294
-0.008614814 0.066943586 -0.102877885 -0.12041816 -0.008488965 -0.04766259 0.09153898 -0.107034996
0.14652945 0.08273643 -0.18202296 0.0030881253 -0.022239128 -0.19138731 -0.12806065 -0.058224104
-0.043336883 0.083853126 0.20294958 0.14009255 0.08286581 0.20535941 -0.19704847 0.17159799
0.0120557835 0.07350221 0.20172332 -0.1728029 -0.15456012 -0.12276801 -0.14554211 0.012240152
0.07652641 -0.12871243 0.032266714 0.18796152 0.15705582 0.027545385 -0.17152826 0.028432535
-0.11897644 0.16554092 0.019513704 -0.02273415 0.078650884 -0.026118258 0.17242701 0.116863534
-0.10368181 0.30568486 0.10591713 0.0975787 0.19656466 0.07173028 0.14167738 0.09434941
0.05642955 -0.04770997 -0.14364903 0.028017916 -0.0028892942 -0.057533577 -0.16187137 0.21267238
0.029987572 0.13472022 0.15981278 -0.040776692 0.14432679 0.13913837 0.18519138 0.20535803
0.121845596 0.16979022 0.026364183 -0.11684596 0.047439035 0.0641442 0.21744138 -0.06439653
-0.02336949 -0.21833354 -0.20908731 -0.057399638 -0.10978566 -0.013495213 0.100097746 0.17360549
-0.031940214 -0.104552306 0.16903377 -0.007174945 0.20714268 -0.019205773 0.12805682 0.10633289
-0.03618777 0.058178924 0.005391058 -0.2354033 -0.042982772 0.02410318 -0.059239347 -0.059998337
0.053825974 -0.06744355 0.1670136 -0.1544594 -0.1285231 0.096537 0.05570672 0.13198994
0.0976149 -0.13033062 -0.11003721 -0.10105509 0.055353183 0.082499005 -0.13778263 -0.0137684485
-0.037029773 -0.31842074 0.044000313 -0.11391317 0.0130373435 0.25555718 0.0037207163 -0.1936837
0.118456244 -0.16505337 0.19298482 -0.15995108 -0.2011201 0.2519529 0.21731256 0.043311186
0.18114655 -0.1742185 -0.24000193 0.17399615 0.1996495 -0.081825875 -0.15622799 -0.130052
-0.05905347 -0.24860354 0.22589523 0.060288437 -0.009003988 0.28690535 -0.23440732 0.17452355
00000000: f3a6 7c3e dc5d a0be 933b c43d bad7 0f3d
00000010: 0a1f 473e b5e6 103e 4251 31be 130f d1be
00000020: cfbb 7abe 3274 c7be 58a9 ac3e 6f2d d0be
00000030: cd54 e9be 9c23 32be 8c61 6abe e2e8 efbd
00000040: f57a f33e 8496 c7be 1e90 bd3e e674 bfbe
00000050: 2fb9 d73d f482 ba3e be22 58bd 5276 02bf
00000060: 12e2 903e 95d3 f13c c02b 4abe 0ba9 0dbd
00000070: 6f68 06be 4f3a 503e 09a5 ea3d 6ea5 b73e
00000080: 15f6 083f 661c 74bd 6f50 963d aacc b6bd
00000090: 2e89 733e f098 123e 80e5 9abe 7dec 01be
000000a0: d7f6 903e 1ec3 9dbe da2b 26bf a9af adbe
000000b0: c877 ee3e 0a1f 4abd 5d21 35be 44b5 3dbe
000000c0: e904 ffbe 1fff f43d 3a44 a9be 8616 9bbe
000000d0: 5515 30be 0f29 eebe fb57 88bd d788 c73e
000000e0: 9fff 063f 2578 ffbe 7e4b 44bd 20d6 9a3e
000000f0: a290 04bf 18e7 21bd 09a1 69be d797 c23e
00000100: 11b5 903e ac9d 07bf 4eca 653e 2080 3fbd
00000110: 9407 9fbe d937 b4bd f388 e03e 9c9b b5be
00000120: c1fd 9c3d 73b4 71be 41f2 35be f1a7 6fbd
00000130: 54e3 62be 988d 66be d1bd 353e 68a4 a6bb
00000140: ec81 97bd fd46 3a3e 6371 e2b8 8a60 9bbd
00000150: a40b 593e a933 bdba 6251 953d ebcf 1abe
00000160: cd84 e13d 24cb 1a3e 65d3 8fbe 8b44 79bd
00000170: 067b 90bc d107 56bd 2cce e73c f329 37be
00000180: 0797 3e3e d53a 093c 553f 933d b163 273e
00000190: 1560 4f3d dbc3 fc3d b423 5dbd e564 a23d
000001a0: 2625 0dbc b819 893d a4b1 d2bd cc9d f6bd
000001b0: 4d15 0bbc d939 43bd ca78 bb3d 2a35 dbbd
000001c0: d10b 163e b871 a93d 3a64 3abe 2562 4a3b
000001d0: d52e b6bc 09fb 43be 5522 03be 667c 6ebd
000001e0: 0482 31bd 30bb ab3d 04d2 4f3e 6c74 0f3e
000001f0: 8db5 a93d bd49 523e 13c7 49be 62b7 2f3e
00000200: 9f85 453c 5488 963d 8f90 4e3e 3ef3 30be
00000210: 0245 1ebe cb6d fbbd fe08 15be eb8a 483c
00000220: e1b9 9c3d 31cd 03be 1a2a 043d fc78 403e
00000230: 3ed3 203e dca6 e13c 1ba5 2fbe 59eb e83c
00000240: eba9 f3bd 8f83 293e 34db 9f3c f83c babc
00000250: b713 a13d f5f5 d5bc b590 303e 2656 ef3d
00000260: 2157 d4bd ba82 9c3e 15eb d83d 57d7 c73d
00000270: 3f48 493e 53e7 923d e013 113e 433a c13d
00000280: ac22 673d 886b 43bd bb18 13be d485 e53c
00000290: 505a 3dbb 54a8 6bbd 9cc1 25be cac6 593e
000002a0: 7fa8 f53c 19f4 093e f6a5 233e 7605 27bd
000002b0: 67ca 133e 4a7a 0e3e cfa2 3d3e 6049 523e
000002c0: 2f8a f93d 7ddd 2d3e b3f9 d73c ef4c efbd
000002d0: 6f4f 423d 095e 833d f4a8 5e3e 54e2 83bd
000002e0: 5f71 bfbc d492 5fbe fc1a 56be e21b 6bbd
000002f0: 4ed7 e0bd 071b 5dbc 0c00 cd3d a3c5 313e
00000300: bed3 02bd 851f d6bd 3017 2d3e cd1b ebbb
00000310: 361d 543e 6d55 9dbc 5421 033e 0fc5 d93d
00000320: a139 14bd 064d 6e3d 79a7 b03b 900d 71be
00000330: b40e 30bd 0874 c53c f5a4 72bd d1c0 75bd
00000340: a078 5c3d d81f 8abd 9d05 2b3e 9b2a 1ebe
00000350: 8f9b 03be 31b5 c53d bb2c 643d 5f28 073e
00000360: 52ea c73d 6475 05be 305b e1bd f9f5 cebd
00000370: 05ba 623d 3df5 a83d e416 0dbe 0f95 61bc
00000380: 88ac 17bd 0b08 a3be ac39 343d 4f4b e9bd
00000390: 959a 553c 64d8 823e 43d7 733b 0555 46be
000003a0: 3099 f23d c003 29be d09d 453e 37ca 23be
000003b0: 6df2 4dbe f8ff 803e 2f87 5e3e 1267 313d
000003c0: 7b7e 393e 5666 32be 11c3 75be 0c2c 323e
000003d0: eb70 4c3e 5394 a7bd 3bfa 1fbe 5a2c 05be
000003e0: 0de2 71bd ed91 7ebe 1451 673e 02f1 763d
000003f0: 7685 13bc 42e5 923e 7908 70be 4db6 323e

160 f4 [8]
1.2266252 0.15670514 -0.93573374 -0.51019 0.009169738 0.22869065 -0.14534947 0.06965264
00000000: 0e02 9d3f 5077 203e 3f8c 6fbf d09b 02bf
00000010: ab3c 163c e22d 6a3e 7ed6 14be 0ba6 8e3d

162 f4 [16, 8, 1, 1]
-0.68977886 -0.018810105 0.39093167 0.63717234 0.1696389 1.064348 -1.1475894 0.45701608
0.35347915 -0.68296987 0.6278749 -0.5595379 -0.36377934 -0.3716592 0.87960595 0.7216567
1.3269398 -0.056854103 -0.35055485 0.4997017 1.2059084 0.5846226 0.9063181 0.11545443
0.7548758 -0.5607775 0.39792722 0.23264635 0.83147323 -0.7301799 -0.814531 -0.062647186
-1.120734 1.0800242 -0.33248878 -0.69684577 0.8671797 0.40036428 0.27653417 1.2302153
1.2590902 1.3563362 -0.0991955 -1.1747 -0.22100282 -0.73468983 1.264113 -0.43505073
-0.4527828 -0.84266585 -0.800223 -0.7737967 0.9084675 -0.37084052 -0.6098824 0.70510966
-1.0913562 -1.0050012 0.2837015 -0.38383806 -0.44386086 -1.4018463 -0.47711256 0.8320085
0.026858218 0.2019736 0.808346 0.61613536 -0.47007406 -0.006145458 0.3695172 -0.8474168
0.32776156 0.26814353 0.34495184 0.06398475 0.16136561 0.5259189 -0.8457798 -0.78849643
-1.2126666 -0.22630842 -1.1551075 0.07809764 -0.44835475 -1.3555963 -0.37206748 0.3814218
-0.20958701 1.0545361 0.60786897 0.03613556 0.01518379 -0.0153451655 0.84186554 0.83666223
-1.2267393 -0.3855702 -0.5693973 -0.58552545 -0.073967345 0.50991553 0.8063515 -0.50208145
-0.223046 0.20839569 0.047708377 0.5784066 -1.5969505 1.0050311 -1.1163102 -0.20510457
-1.0034267 -1.0614258 -0.07853759 0.74528944 -0.36735168 1.0141855 -0.8090848 0.45775992
0.9364732 -0.5748535 0.46049976 -0.67251706 0.021980833 -0.31125587 -0.7394021 -0.25647628
00000000: 5995 30bf a617 9abc 3228 c83e ba1d 233f
00000010: d2b5 2d3e 8e3c 883f 36e4 92bf 03fe e93e
00000020: 38fb b43e 1dd7 2ebf 69bc 203f e03d 0fbf
00000030: 4941 babe 1d4a bebe db2d 613f 7ebe 383f
00000040: 2ad9 a93f d9df 68bd ed7b b3be e7d8 ff3e
00000050: 355b 9a3f d4a9 153f 7704 683f 5f73 ec3d
00000060: 8a3f 413f 1d8f 0fbf 1ebd cb3e d83a 6e3e
00000070: 6edb 543f 12ed 3abf 1b85 50bf 2b4d 80bd
00000080: 3674 8fbf 3c3e 8a3f f83b aabe 7c64 32bf
00000090: 7dff 5d3f 8cfc cc3e e395 8d3e b277 9d3f
000000a0: de29 a13f 6d9c ad3f 0327 cbbd 925c 96bf
000000b0: 904e 62be a214 3cbf 74ce a13f f8be debe
000000c0: 26d3 e7be f3b8 57bf 6adb 4cbf 8a17 46bf
000000d0: 5391 683f cfde bdbe 4121 1cbf 1182 343f
000000e0: 8fb1 8bbf e1a3 80bf 5341 913e 6c86 c4be
000000f0: bb41 e3be b36f b3bf 1948 f4be 82fe 543f
00000100: c405 dc3c 2bd2 4e3e c3ef 4e3f 0cbb 1d3f
00000110: 8cad f0be d75f c9bb 5c31 bd3e 4ff0 58bf
00000120: 5dd0 a73e 1c4a 893e 879d b03e 700a 833d
00000130: 073d 253e 9fa2 063f 0685 58bf e7da 49bf
00000140: a938 9bbf 65bd 67be 90da 93bf a8f1 9f3d
00000150: c18e e5be 2e84 adbf a17f bebe b849 c33e
00000160: fa9d 56be 0afb 863f 4d9d 1b3f e202 143d
00000170: 6ec5 783c 4a6a 7bbc 8084 573f 7f2f 563f
00000180: cb05 9dbf 7569 c5be 05c4 11bf ffe4 15bf
00000190: 317c 97bd d389 023f 0d6d 4e3f 6988 00bf
000001a0: 2c66 64be ae65 553e dc69 433d 7412 143f
000001b0: e068 ccbf dca4 803f 41e3 8ebf ef06 52be
000001c0: 4970 80bf cddc 87bf 51d8 a0bd 4acb 3e3f
000001d0: 8515 bcbe d5d0 813f 2e20 4fbf 825f ea3e
000001e0: b5bc 6f3f 9929 13bf a0c6 eb3e 142a 2cbf
000001f0: 2611 b43c ee5c 9fbe 7549 3dbf dc50 83be

163 f4 [16]
-0.39236468 -0.30046982 -1.7538923 0.10352592 -0.76599896 -0.49728352 0.873259 1.5489668
-0.22193308 0.03961179 1.7313347 -1.2613314 0.76434547 0.5317008 0.37604627 0.46016398
00000000: 06e4 c8be 2ed7 99be 8b7f e0bf 6605 d43d
00000010: 8218 44bf f29b febe e78d 5f3f 8b44 c63f
00000020: 6d42 63be f93f 223d 609c dd3f 4f73 a1bf
00000030: 25ac 433f 8b1d 083f 2389 c03e 9d9a eb3e

165 f4 [16, 8, 1, 1]
1.6050707 -0.44808868 -0.945831 1.2678992 0.09520861 -1.4486276 -1.0247415 1.225315
-1.6390927 1.2658519 1.4049616 -0.06665781 1.466476 0.9812781 0.7269096 1.8098158
1.1649206 -0.98099834 -1.0506741 0.39168522 0.9782007 -0.34595987 0.38316852 -0.98359036
-0.83227015 -1.5405103 1.2725081 -1.5309033 -1.3611268 0.48200697 -0.968399 -1.9029639
1.126863 0.69188035 -0.24968995 0.06119695 1.4220167 -0.46484149 1.5601844 0.06977991
0.26718304 -0.44484836 -1.1535063 0.562981 0.8186849 1.3108697 0.66462296 -0.84477854
0.90716046 2.142977 -0.38719398 2.1412454 1.6417186 2.1247246 -0.25678954 -1.0951397
0.88146776 0.86756736 -0.81890607 -0.9271045 -0.49907205 0.18180269 -1.3509959 0.81479967
1.1768172 -0.4299511 -0.36407533 1.079058 0.5628228 -0.13526106 1.1316437 -0.56257194
1.1662457 -0.38019052 -1.7284945 1.2496084 -0.027058505 0.8245141 -0.8618639 -1.2397666
1.3020817 -1.48916 1.5383043 0.0042177318 -0.52792597 0.13790618 -0.91569847 0.9618955
0.8291735 -1.8091791 1.8047775 -1.8584906 -0.28664115 -2.6365736 1.6743461 -2.3307402
1.5602008 2.2640083 0.6330375 1.6884006 1.8786058 0.835977 0.5317811 1.5685132
-0.63449305 -1.2665619 -1.8412988 -0.9291773 -1.3317211 -0.610249 1.626449 -1.5288061
0.16857174 1.4428126 0.15744714 -0.9299416 -0.62134147 1.2543583 -0.062150117 -0.25287765
0.7970617 -1.9546225 -1.6748886 -1.3935829 -1.1587918 1.8105803 -0.58211 -0.047357116
00000000: f572 cd3f e16b e5be fb21 72bf 854a a23f
00000010: bbfc c23d a16c b9bf bb2a 83bf 1fd7 9c3f
00000020: cacd d1bf 6f07 a23f c8d5 b33f e483 88bd
00000030: 7cb5 bb3f 0b35 7b3f bf16 3a3f 0ba8 e73f
00000040: 1e1c 953f b522 7bbf 7d7c 86bf f78a c83e
00000050: 5c6b 7a3f a721 b1be aa2e c43e 94cc 7bbf
00000060: a80f 55bf 712f c5bf 8ce1 a23f a4f4 c3bf
00000070: 6739 aebf 9ec9 f63e ffe8 77bf 5294 f3bf
00000080: 0c3d 903f 121f 313f b9ae 7fbe a7a9 7a3d
00000090: a504 b63f b4ff edbe 1fb4 c73f c5e8 8e3d
000000a0: 37cc 883e 2ac3 e3be 18a6 93bf 861f 103f
000000b0: 5595 513f 94ca a73f bb24 2a3f 6843 58bf
000000c0: ab3b 683f 8926 0940 4a3e c6be 2a0a 0940
000000d0: d623 d23f 7dfb 0740 eb79 83be 8a2d 8cbf
000000e0: dfa7 613f e518 5e3f d4a3 51bf b856 6dbf
000000f0: 5f86 ffbe 7c2a 3a3e 6fed acbf b696 503f
00000100: f2a1 963f 8d22 dcbe 1568 babe 931e 8a3f
00000110: 2815 103f e081 0abe b3d9 903f b704 10bf
00000120: 8a47 953f 55a8 c2be 4f3f ddbf 2bf3 9f3f
00000130: cca9 ddbc 5b13 533f 1da3 5cbf acb0 9ebf
00000140: 9daa a63f cb9c bebf 28e7 c43f e634 8a3b
00000150: 2826 07bf 4737 0d3e 376b 6abf c93e 763f
00000160: b744 543f 2e93 e7bf f302 e73f 05e3 edbf
00000170: a1c2 92be 9fbd 28c0 f950 d63f d92a 15c0
00000180: a9b4 c73f 83e5 1040 bf0e 223f 831d d83f
00000190: 2876 f03f 9702 563f ce22 083f 0ac5 c83f
000001a0: 236e 22bf b31e a2bf aeaf ebbf 90de 6dbf
000001b0: d675 aabf 4739 1cbf 7b2f d03f ebaf c3bf
000001c0: 129e 2c3e 15ae b83f d339 213e a710 6ebf
000001d0: 3c10 1fbf d08e a03f 1f91 7ebd 2e79 81be
000001e0: 3c0c 4c3f 1231 fabf c062 d6bf ed60 b2bf
000001f0: 4a53 94bf 18c1 e73f 2905 15bf 89f9 41bd

166 f4 [16]
-0.79400516 0.5614363 -0.44053468 -0.48145556 0.7110239 0.074570686 0.7061158 0.35805902
0.07397638 -0.4294607 -0.5761812 -0.1362704 0.96915144 0.19651711 1.1657928 -0.035015147
00000000: ec43 4bbf 4aba 0f3f c38d e1be 5881 f6be
00000010: aa05 363f 84b8 983d 01c4 343f 8353 b73e
00000020: ee80 973d 46e2 dbbe 9c80 13bf 788a 0bbe
00000030: 4f1a 783f c83b 493e b338 953f 0b6c 0fbd

168 f4 [16, 16, 1, 1]
0.6098947 -0.62243766 0.7159109 0.58698034 1.1920329 -0.07174767 0.6638363 -0.2900522
0.30579874 -0.5270127 -0.2683164 -0.5845356 -0.8660761 -1.2396121 1.0432374 0.11336843
0.38392 0.40135834 1.3235549 0.62168413 -1.1867502 0.7565734 0.828975 -0.22788885
0.019259425 -0.17348151 1.0559807 -0.3868994 -0.4468022 -0.038790464 -0.55900276 1.1368383
0.38143098 -0.8415505 0.21075755 -0.43022245 0.28885657 -0.87385327 0.8048577 1.0273983
-0.22706841 0.80645496 0.004586026 1.2201499 0.09466344 0.778302 -0.47781122 -0.08798338
-0.7028373 0.7461244 -0.17928894 -1.3344239 -0.8287186 0.5962423 0.5834271 0.047427032
-0.53164756 0.15929446 -0.00031727666 0.17105772 -0.9262437 0.37004226 -0.9167724 -1.0872613
-0.2144886 -0.48874012 1.2612467 -0.35776857 -0.57789844 -0.5071842 -1.4609574 -0.33946133
-0.44307902 0.4697281 0.48699704 1.8986259 -1.2225565 0.50386375 0.32601464 1.4938035
0.6119795 -0.7716844 0.50433034 0.20898877 -0.6489227 -0.8870156 0.90513676 -0.7045978
-0.80260766 -0.7359707 0.40014616 0.24377932 -0.21783203 1.0264189 -0.5641761 -0.572615
0.9262844 0.11390237 -0.8187223 0.87357426 1.0517364 0.22595415 -0.45099035 0.12980542
0.021649836 -0.30231068 0.77612627 0.5190562 -0.59908754 0.8809283 0.8752899 -0.89929503
-0.53124005 -1.080644 -1.2440022 -1.4506549 1.3012714 1.2003733 0.56452245 -1.2179236
-0.26265046 -0.55980253 -0.45634934 0.19271356 -0.49004143 1.2545149 -0.3988159 0.7722167
0.06337788 0.15571193 0.048466105 0.042108476 -0.23201227 0.5461865 -0.56065464 0.02681474
-0.44813076 -0.65227705 -1.0701088 -0.81240517 0.43535712 -0.57432246 0.6191036 0.74743783
-0.81081164 -1.1445061 0.34512305 1.0416527 -0.33947873 0.39431334 0.523289 0.47957626
1.1040608 -0.116217166 -0.7951044 1.377268 -0.42641732 -0.4390818 -1.0213659 0.41785437
-0.013199462 -0.55374545 -0.60512334 0.48966914 0.3562554 -0.56392336 -0.3615587 0.204641
-0.5704453 0.61260617 0.82608676 -0.60546744 -0.32086456 0.77990294 0.49541995 -0.22952187
0.8038823 -0.008984888 -0.5667919 0.9424267 1.0465149 1.02589 0.8931796 -0.73744375
-0.3528547 -0.73034114 0.808054 -0.06231579 -0.11664676 1.0599359 -0.29541025 -0.56003356
0.02308691 1.6954944 0.0072383317 0.60408056 1.0774802 1.1603557 -0.3640277 0.21209133
0.2661338 0.7511321 -0.77548695 0.1223952 0.93567896 0.8494518 0.1676361 0.69465053
0.69275576 0.2425634 0.9786272 -1.135528 0.05149049 -0.60680246 0.1820091 0.35342494
0.70061487 -0.07110442 0.5285773 -0.86329293 -0.4314213 -0.946103 -0.09163916 0.8124988
-0.41433504 0.23918797 0.5856216 0.12054861 0.32658893 0.49356842 -0.46918154 -0.340588
0.18428777 0.7366145 -0.80785066 -0.27869907 -0.62861955 -0.63065046 0.19420488 0.69710225
0.22979844 -0.79225963 0.51260465 0.99110067 -0.8246595 1.0548071 -0.096160345 0.38285658
0.61266136 0.2680943 -0.16467996 0.04425368 -1.4160215 -1.0190129 -0.46983135 -0.9301344
00000000: 0f22 1c3f 1358 1fbf f045 373f 5844 163f
00000010: 8994 983f 71f0 92bd 2df1 293f b981 94be
00000020: a791 9c3e 4eea 06bf c460 89be 20a4 15bf
00000030: 2ab7 5dbf 9cab 9ebf ce88 853f b52d e83d
00000040: 2a91 c43e d77e cd3e 3f6a a93f b126 1f3f
00000050: 6ee7 97bf cbae 413f b537 543f b25b 69be
00000060: f1c5 9d3c 23a5 31be 602a 873f ae17 c6be
00000070: 42c3 e4be c0e2 1ebd ce1a 0fbf eb83 913f
00000080: ec4a c33e db6f 57bf d4d0 573e 1e46 dcbe
00000090: 02e5 933e d9b4 5fbf 270b 4e3f ca81 833f
000000a0: 9f84 68be d573 4e3f 6046 963b df2d 9c3f
000000b0: e8de c13d cd3e 473f aca3 f4be a130 b4bd
000000c0: 25ed 33bf 0202 3f3f 8597 37be 67ce aabf
000000d0: e726 54bf 56a3 183f 7a5b 153f d942 423d
000000e0: 0e1a 08bf 161e 233e 2758 a6b9 c129 2f3e
000000f0: 4f1e 6dbf 2e76 bd3e 99b1 6abf 612b 8bbf
00000100: e6a2 5bbe 253c fabe 8870 a13f 712d b7be
00000110: 27f1 13bf d3d6 01bf a700 bbbf e0cd adbe
00000120: 41db e2be 3480 f03e ad57 f93e 2c06 f33f
00000130: bb7c 9cbf 37fd 003f 64eb a63e f434 bf3f
00000140: b0aa 1c3f 1c8d 45bf cb1b 013f 2701 563e
00000150: cc1f 26bf 7413 63bf 0bb7 673f 8560 34bf
00000160: b277 4dbf 9368 3cbf f5df cc3e 49a1 793e
00000170: 5c0f 5fbe b261 833f d86d 10bf e696 12bf
00000180: f920 6d3f a545 e93d c997 51bf 90a2 5f3f
00000190: 4c9f 863f 8660 673e 35e8 e6be b6eb 043e
000001a0: ff5a b13c 77c8 9abe 36b0 463f dee0 043f
000001b0: cd5d 19bf 8484 613f 0013 603f 3338 66bf
000001c0: 59ff 07bf 8b52 8abf 773b 9fbf 0faf b9bf
000001d0: 1090 a63f d5a5 993f 8b84 103f ece4 9bbf
000001e0: 1f7a 86be 384f 0fbf 9fa6 e9be b456 453e
000001f0: b6e6 fabe f293 a03f 9931 ccbe feaf 453f
00000200: 43cc 813d f372 1f3e 6584 463d f079 2c3d
00000210: a094 6dbe e1d2 0b3f 1087 0fbf 96aa db3c
00000220: 6571 e5be a1fb 26bf 53f9 88bf c9f9 4fbf
00000230: 21e7 de3e cc06 13bf 937d 1e3f 1658 3f3f
00000240: 5a91 4fbf 2d7f 92bf f8b3 b03e e054 853f
00000250: 28d0 adbe 70e3 c93e 45f6 053f 058b f53e
00000260: dd51 8d3f 4403 eebd f68b 4bbf 514a b03f
00000270: 5f53 dabe 54cf e0be 1ebc 82bf 02f1 d53e
00000280: 8e42 58bc 43c2 0dbf 5de9 1abf eab5 fa3e
00000290: 1c67 b63e 485d 10bf 391e b9be 698d 513e
000002a0: b408 12bf c2d3 1c3f 6c7a 533f eaff 1abf
000002b0: 5c48 a4be b8a7 473f afa7 fd3e c807 6bbe
000002c0: 3bcb 4d3f 5a35 13bc 4619 11bf e042 713f
000002d0: 33f4 853f 5d50 833f 6ba7 643f 1dc9 3cbf
000002e0: 5fa9 b4be a3f7 3abf a0dc 4e3f d83e 7fbd
000002f0: 7fe4 eebd fbab 873f 0340 97be 5c5e 0fbf
00000300: c220 bd3c f605 d93f 872f ed3b 06a5 1a3f
00000310: dfea 893f 8986 943f d761 babe 782e 593e
00000320: b042 883e 314a 403f 5086 46bf 56aa fa3d
00000330: a888 6f3f ac75 593f cca8 2b3e 9ed4 313f
00000340: 7158 313f 8a62 783e 5087 7a3f fb58 91bf
00000350: b1e7 523d 6857 1bbf 9860 3a3e 1df4 b43e
00000360: 7f5b 333f 329f 91bd d850 073f c400 5dbf
00000370: 41e3 dcbe ce33 72bf 50ad bbbd ecff 4f3f
00000380: b923 d4be b1ed 743e 4ceb 153f 31e2 f63d
00000390: aa36 a73e 00b5 fc3e 9038 f0be 8d61 aebe
000003a0: efb5 3c3e c592 3c3f 4dcf 4ebf a5b1 8ebe
000003b0: 36ed 20bf 4f72 21bf a5dd 463e 4b75 323f
000003c0: 4850 6b3e 87d1 4abf 0f3a 033f c6b8 7d3f
000003d0: e31c 53bf eb03 873f b7ef c4bd c705 c43e
000003e0: 60d7 1c3f a843 893e dda1 28be 5943 353d
000003f0: 3140 b5bf 046f 82bf bc8d f0be 4a1d 6ebf

169 f4 [16]
-0.89158404 -0.30600137 0.40788668 0.4163596 0.41800144 0.76462126 0.9897483 -0.19876511
-0.913322 -0.27801082 0.9598011 0.57545334 -0.14885888 -0.7356124 -0.57829356 -0.191766
00000000: da3e 64bf 36ac 9cbe 86d6 d03e 162d d53e
00000010: 4904 d63e 38be 433f 2560 7d3f 1589 4bbe
00000020: 78cf 69bf 6f57 8ebe 86b5 753f e950 133f
00000030: 766e 18be 1851 3cbf 0c0b 14bf 4e5e 44be

171 f4 [32, 16, 1, 1]
0.09186735 0.36493874 -0.26580554 -0.023476457 -0.22502655 0.17984036 0.16127875 0.16596726
-0.28723186 -0.034284204 -0.31928894 -0.29730523 -0.10658594 0.2740937 0.32558957 -0.3315741
-0.027924662 0.22129948 -0.13503313 -0.106017366 -0.23114185 -0.15053351 -0.14239348 -0.08231671
0.063535884 0.11000169 -0.10875188 -0.050410435 -0.059742667 -0.16742532 0.20427881 -0.016196547
-0.15498735 -0.30199078 0.13675067 -0.059237957 0.05185518 0.2326198 0.03698137 -0.2382374
0.14066127 0.22372727 -0.21066236 -0.22552837 0.20187294 0.0411156 0.12686573 0.12417749
-0.1454135 0.22528878 -0.09729306 0.19019794 0.32098186 -0.28765023 -0.0385117 -0.15374012
-0.36942002 0.10697039 0.19055389 0.35153413 -0.20634669 -0.35436276 -0.26250315 0.21585353
0.1036739 0.22704491 0.117643155 -0.21737388 0.32478467 0.11174016 0.25529256 -0.12589222
-0.13472429 -0.023797061 -0.28868976 0.2400167 0.0068547637 -0.14021932 0.28193277 0.26691025
0.06590663 0.076273546 -0.17004775 0.04529615 0.17452662 -0.10086996 -0.14294745 0.15046026
0.036367055 0.05061619 -0.14484122 -0.061355077 -0.20354918 0.09322667 -0.04065204 0.010449933
-0.119639 0.20096041 -0.15331575 -0.43968156 0.055602565 -0.015073741 0.08784829 -0.28861076
0.35619223 0.057237145 0.12588282 0.018129176 0.08725946 0.3638374 -0.10108382 -0.24971037
-0.21733928 -0.06789755 -0.24368145 -0.16983365 -0.082756035 0.15333155 -0.24469848 0.09320834
0.21145242 0.1676467 0.123508014 0.18156017 -0.16353783 -0.0027568105 0.15217192 0.18038544
0.15381704 -0.19602941 -0.011091089 -0.27093425 0.21356162 0.14686514 0.23436327 0.11307744
-0.074203596 0.08310682 -0.10444848 -0.027083263 0.064342536 0.25225425 0.19894643 -0.2657905
-0.13359366 -0.13094972 0.15748753 -0.36142653 -0.04944884 -0.026835417 -0.12115472 0.19718476
-0.05596385 0.011345407 0.029379405 -0.08587755 0.048410654 -0.2693028 -0.049897496 -0.26035446
-0.05145168 0.34071177 0.21003258 -0.3019357 0.1410824 0.2077732 -0.20714872 -0.31074873
-0.14123803 -0.3290143 0.030316655 -0.074074775 -0.24915117 -0.29154226 0.30843753 0.16158198
0.013639791 0.0069417274 0.15600535 -0.10692148 -0.13572386 0.009955254 0.2573864 0.04040692
-0.15628406 -0.22348157 -0.11713408 0.19078256 0.05844975 0.017836463 -0.05532149 0.25733915
-0.078740306 0.16110738 0.11943868 0.14118464 0.049794797 -0.093079224 -0.00046021657 0.080892056
0.18601665 -0.010770141 0.021780208 0.08558147 0.19039823 -0.091194406 -0.06398478 -0.18514705
0.21105245 -0.18177266 -0.25680068 -0.07639155 -0.248963 -0.07839244 -0.030089634 -0.110917464
-0.27293342 -0.048536796 -0.15064408 -0.04105753 -0.09401488 0.10473077 -0.13877735 -0.025498042
-0.1949063 0.10466019 -0.10705169 0.06876241 0.011709837 -0.24012096 0.08045144 -0.08458443
-0.06884932 0.037424564 0.19291076 0.20717022 0.1776228 -0.30442822 -0.23496221 0.06884703
-0.19244947 -0.25119507 0.009434441 -0.27684295 0.12108161 0.00025885328 0.12992786 0.18817113
-0.0674228 0.1574671 0.11672343 -0.21480273 -0.12149507 0.09658843 0.06464754 -0.11186952
00000000: f324 bc3d 40d9 ba3e aa17 88be b351 c0bc
00000010: 5c6d 66be 1228 383e 4226 253e 52f3 293e
00000020: 0e10 93be 986d 0cbd d779 a3be 6438 98be
00000030: bb49 dabd 0256 8c3e adb3 a63e 15c4 a9be
00000040: 43c2 e4bc 559c 623e 2046 0abe a21f d9bd
00000050: 73b0 6cbe 7525 1abe 99cf 11be aa95 a8bd
00000060: 1a1f 823d 9148 e13d 4eb9 debd 2c7b 4ebd
00000070: bab4 74bd 8b71 2bbe 772e 513e 9fae 84bc
00000080: 01b5 1ebe 899e 9abe 5e08 0c3e 80a3 72bd
00000090: 1966 543d e333 6e3e c779 173d 81f4 73be
000000a0: 8209 103e c318 653e e0b7 57be e9f0 66be
000000b0: c8b7 4e3e d568 283d 17e9 013e c550 fe3d
000000c0: 47e7 14be 1ab2 663e 9541 c7bd 40c3 423e
000000d0: bc57 a43e e446 93be 72be 1dbd 0d6e 1dbe
000000e0: 9f24 bdbe 4b13 db3d 8f20 433e 48fc b33e
000000f0: 8c4c 53be 096f b5be d066 86be b508 5d3e
00000100: fb52 d43d 767e 683e e5ee f03d 4297 5ebe
00000110: 2d4a a63e 06d8 e43d b5b5 823e e4e9 00be
00000120: 2af5 09be 0ef2 c2bc 25cf 93be f0c6 753e
00000130: ed9d e03b a795 0fbe 7e59 903e 76a8 883e
00000140: 0efa 863d 4e35 9c3d ff20 2ebe 7588 393d
00000150: 1bb7 323e e994 cebd d160 12be 4112 1a3e
00000160: 9ff5 143d ec52 4f3d 4251 14be 764f 7bbd
00000170: 326f 50be a0ed be3d c182 26bd 3236 2b3c
00000180: 4b05 f5bd 91c8 4d3e cefe 1cbe f11d e1be
00000190: 84bf 633d daf7 76bc cee9 b33d cac4 93be
000001a0: d45e b63e 7f71 6a3d 6de7 003e a383 943c
000001b0: 16b5 b23d e548 ba3e 0905 cfbd 13b4 7fbe
000001c0: 308e 5ebe df0d 8bbd a187 79be dfe8 2dbe
000001d0: ff7b a9bd f202 1d3e 3d92 7abe 04e4 be3d
000001e0: fc86 583e 94ab 2b3e c5f1 fc3d e9ea 393e
000001f0: 7676 27be 9bab 34bb f5d2 1b3e f6b6 383e
00000200: 3782 1d3e efbb 48be 66b7 35bc e5b7 8abe
00000210: e6af 5a3e d163 163e edfc 6f3e 2595 e73d
00000220: 0ef8 97bd e933 aa3d 16e9 d5bd b8dd ddbc
00000230: 05c6 833d 7827 813e 9db8 4b3e b115 88be
00000240: c7cc 08be af17 06be 6944 213e e60c b9be
00000250: de8a 4abd f3d5 dbbc f71f f8bd cdea 493e
00000260: 5a3a 65bd 16e2 393c 14ad f03c 92e0 afbd
00000270: 404a 463d 0ee2 89be 5161 4cbd 2e4d 85be
00000280: ffbe 52bd c671 ae3e c812 573e 5197 9abe
00000290: e877 103e 7fc2 543e cb1e 54be 751a 9fbe
000002a0: b4a0 10be 9074 a8be a25a f83c 84b4 97bd
000002b0: 7c21 7fbe 0745 95be 86eb 9d3e bf75 253e
000002c0: 6e79 5f3c 6e77 e33b debf 1f3e a6f9 dabd
000002d0: 32fb 0abe 5d1b 233c 26c8 833e ba81 253d
000002e0: ee08 20be 5ad8 64be fee3 efbd 815c 433e
000002f0: 0169 6f3d c61d 923c c998 62bd f5c1 833e
00000300: 9942 a1bd 55f9 243e 449c f43d b592 103e
00000310: a1f5 4b3d 52a0 bebd 3949 f1b9 bcaa a53d
00000320: 267b 3e3e 3f75 30bc 686c b23c 5645 af3d
00000330: c1f7 423e 22c4 babd 740a 83bd 3097 3dbe
00000340: 221e 583e 9d22 3abe 617b 83be 2c73 9cbd
00000350: 28f0 7ebe 378c a0bd 897e f6bc b228 e3bd
00000360: eebd 8bbe 85ce 46bd 7142 1abe f12b 28bd
00000370: e08a c0bd 167d d63d a61b 0ebe 45e1 d0bc
00000380: 8495 47be 1558 d63d eb3d dbbd 4ed3 8c3d
00000390: 9eda 3f3c 45e2 75be b9c3 a43d 9a3a adbd
000003a0: df00 8dbd 804a 193d 668a 453e 6e24 543e
000003b0: c0e2 353e 04de 9bbe ef99 70be acff 8c3d
000003c0: 7911 45be a49c 80be ea92 1a3c 5cbe 8dbe
000003d0: a3f9 f73d b3b6 8739 cf0b 053e efaf 403e
000003e0: f714 8abd 0e3f 213e b20c ef3d 3ff5 5bbe
000003f0: 68d2 f8bd 28d0 c53d ee65 843d d91b e5bd

172 f4 [32]
0.1362834 0.66008854 -0.08969387 0.1341417 -0.48311582 0.028134856 0.19715919 0.17390996
-0.4398699 0.7182608 0.6608231 -0.15731923 -0.4371385 0.85773396 0.16111273 0.13660662
-0.31176996 -0.4733706 0.73783517 -0.12072605 -0.10167478 0.1863512 -0.105343 0.64001894
0.1592777 -0.5730221 -0.09015875 -0.26831865 -0.3621967 -0.0043948195 -0.44311082 -0.8769388
00000000: e08d 0b3e 90fb 283f 6bb1 b7bd 715c 093e
00000010: f55a f7be 127b e63c 19e4 493e 7415 323e
00000020: a136 e1be f1df 373f b42b 293f 4b18 21be
00000030: 9ed0 dfbe 7494 5b3f bcfa 243e 9be2 0b3e
00000040: 50a0 9fbe a25d f2be c4e2 3c3f 383f f7bd
00000050: de3a d0bd d9d2 3e3e 12be d7bd 48d8 233f
00000060: b219 233e 94b1 12bf 27a5 b8bd 1061 89be
00000070: d971 b9be 6b02 90bb 6cdf e2be 107f 60bf

174 f4 [32, 16, 1, 1]
-0.47134665 -0.47685698 -0.09614686 -0.496391 0.15131818 -0.290114 -0.14722483 0.16106474
0.003336378 -0.22720578 0.13008927 0.18119632 -0.6757679 0.060524892 0.3576577 -0.48774317
-0.18262553 0.1258092 0.08915512 0.048953794 -0.37380263 -0.66735226 0.4826611 0.44810045
-0.18535513 0.42508253 0.15360379 -0.110845625 0.43785566 0.6753195 0.15072908 0.16584639
0.5261226 -0.5200504 -0.628329 -0.10788066 -0.20033261 0.48144868 0.29044196 -0.39589137
0.16503367 0.18452378 -0.7036313 0.25603172 -0.20335436 0.50451463 0.005900403 0.34748697
0.11318138 -0.10373656 0.0447049 0.18313736 0.33863792 0.4056954 -0.28836226 0.41699627
0.09882546 -0.39258003 0.044027228 -0.29092747 -0.079361804 -0.012360159 -0.2755208 -0.5740219
-0.015025772 0.43845877 -0.07700968 0.37725806 -0.2459732 -0.19505693 -0.061603002 0.20258322
0.33591366 -0.6104405 0.0203059 -0.020427166 -0.028941886 -0.5058221 0.82404417 0.59868073
0.40866667 -0.284641 0.034107156 -0.35849372 -0.13572557 -0.3764198 0.40918162 0.3738135
0.34396553 0.24820758 -0.4511569 0.13374743 0.033336837 0.2918649 -0.15001513 -0.4009704
0.0013019639 0.6832576 0.14603995 0.10675156 -0.39824307 0.87208843 0.49003485 0.33750582
0.3988856 0.5932156 -0.40467578 -0.33517307 0.04852173 0.4932346 -0.49562898 0.25815365
0.4833336 -0.39078543 -0.4449584 -0.39060333 0.739121 0.15919752 -0.3699209 0.05580602
-0.6258234 0.0691394 -0.46399674 0.06501136 0.22160329 0.11175581 -0.49453232 -0.04895844
-0.11818581 0.45218512 -0.22909808 -0.2774198 -0.43624285 0.47237018 0.30378267 -0.12940991
-0.23173608 -0.53070307 0.21623072 0.10953743 -0.25650498 -0.2928508 0.7167133 -0.3259448
-0.13860333 0.30450183 -0.54744166 -0.0784009 -0.030126551 -0.643916 0.3500339 -0.091002285
0.2410583 -0.1358555 -0.5056499 -0.14614838 0.009624808 0.462396 -0.59702474 -0.36134887
0.3979569 0.17460477 -0.39308843 0.39696896 -0.072658636 0.023701353 -0.017828105 -0.29812616
0.42567468 0.40698326 -0.21297263 -0.05984803 0.3427293 -0.32495272 -0.22722806 0.26446524
0.2086214 -0.20368879 -0.052322812 0.21690169 -0.27408022 0.6263831 -0.27005464 -0.12975499
0.31633052 0.080176346 0.3416469 -0.27557924 -0.10040787 -0.25453225 0.37474295 -0.38357928
0.18032892 -0.228209 0.4637175 0.00968593 -0.027131392 -0.42483613 -0.16618502 -0.42330074
-0.19987133 0.059785042 -0.017537946 -0.4992673 0.3857073 -0.12326723 -0.10135823 0.43279058
-0.17263277 -0.023005592 -0.22758795 0.010672302 0.013020525 0.06628396 -0.33443257 -0.22238089
0.19508044 0.32363603 0.23111896 -0.19577952 0.34218934 -0.23522711 0.08116607 0.0890768
-0.2013604 0.58746517 0.2789092 -0.15423094 -0.27714506 0.73371196 0.34748313 0.4008482
0.47488993 0.39732516 0.037769496 -0.53479373 -0.07627107 0.24667628 0.2579818 0.39913127
0.52805823 -0.53938097 0.4316142 0.481359 0.01413366 0.17560853 -0.571074 0.63263404
0.47117168 -0.06217425 0.21971141 -0.26350185 -0.0523257 0.37954587 0.09596618 -0.21029492
00000000: 5954 f1be 9926 f4be a5e8 c4bd f626 febe
00000010: 27f3 1a3e d289 94be 1bc2 16be 28ee 243e
00000020: 22a7 5a3b a2a8 68be 1f36 053e 878b 393e
00000030: 20ff 2cbf f3e8 773d e91e b73e 79b9 f9be
00000040: 3002 3bbe 20d4 003e f696 b63d c683 483d
00000050: 0f63 bfbe 99d7 2abf 5b1f f73e 6c6d e53e
00000060: bccd 3dbe 6ba4 d93e 504a 1d3e 0803 e3bd
00000070: 9e2e e03e bde1 2c3f b958 1a3e a3d3 293e
00000080: f9af 063f 0622 05bf 2bda 20bf 89f0 dcbd
00000090: fe23 4dbe 7180 f63e cfb4 943e 46b2 cabe
000000a0: 96fe 283e cdf3 3c3e 2e21 34bf 9716 833e
000000b0: 203c 50be df27 013f 2b58 c13b d0e9 b13e
000000c0: a4cb e73d d573 d4bd 7c1c 373d 5c88 3b3e
000000d0: f361 ad3e 4fb7 cf3e 38a4 93be 8980 d53e
000000e0: 0165 ca3d 4000 c9be e555 343d 72f4 94be
000000f0: 7188 a2bd 4482 4abc 1011 8dbe 19f3 12bf
00000100: a82e 76bc ab7d e03e 40b7 9dbd f827 c13e
00000110: 66e0 7bbe 01bd 47be 6e53 7cbd fa71 4f3e
00000120: e0fc ab3e d445 1cbf 8f58 a63c df56 a7bc
00000130: 8917 edbc 8f7d 01bf 8ff4 523f 2443 193f
00000140: c23c d13e 77bc 91be f2b3 0b3d 7d8c b7be
00000150: a5fb 0abe 19ba c0be 4180 d13e 7c64 bf3e
00000160: 401c b03e 212a 7e3e 0afe e6be 16f5 083e
00000170: 358c 083d 516f 953e 919d 19be fe4b cdbe
00000180: a9a6 aa3a f8e9 2e3f 7f8b 153e 90a0 da3d
00000190: 84e6 cbbe 3041 5f3f d9e5 fa3e 90cd ac3e
000001a0: bc3a cc3e fadc 173f aa31 cfbe ce9b abbe
000001b0: b9be 463d 3f89 fc3e 15c3 fdbe b72c 843e
000001c0: 8077 f73e 0715 c8be 96d1 e3be 29fd c7be
000001d0: 0937 3d3f ad04 233e 4666 bdbe da94 643d
000001e0: f635 20bf f598 8d3d fb90 edbe ad24 853d
000001f0: f9eb 623e 3be0 e43d 5733 fdbe a588 48bd
00000200: 670b f2bd cf84 e73e b098 6abe f809 8ebe
00000210: 395b dfbe 81da f13e 6789 9b3e 0884 04be
00000220: 394c 6dbe 28dc 07bf 966b 5d3e 2955 e03d
00000230: 9f54 83be 8af0 95be 867a 373f 3de2 a6be
00000240: 08ee 0dbe aae7 9b3e 2325 0cbf a790 a0bd
00000250: f5cb f6bc aed7 24bf a537 b33e 685f babd
00000260: fdd7 763e b41d 0bbe 4672 01bf eca7 15be
00000270: 5fb1 1d3c 2bbf ec3e 9dd6 18bf b802 b9be
00000280: 02c1 cb3e 98cb 323e e342 c9be 843f cb3e
00000290: 0dce 94bd 5729 c23c 3f0c 92bc fea3 98be
000002a0: 08f2 d93e 1c60 d03e 7f15 5abe 3523 75bd
000002b0: 377a af3e 3460 a6be 79ae 68be fd67 873e
000002c0: d9a0 553e cb93 50be 7250 56bd 7a1b 5e3e
000002d0: 3e54 8cbe a55a 203f 9a44 8abe 7ede 04be
000002e0: 13f6 a13e 7f33 a43d 58ec ae3e b918 8dbe
000002f0: a4a2 cdbd 0d52 82be 4fde bf3e 8164 c4be
00000300: 25a8 383e 9faf 69be 616c ed3e bcb1 1e3c
00000310: a742 debc 1f84 d9be 682c 2abe e0ba d8be
00000320: 12ab 4cbe 29e1 743d bdab 8fbc f79f ffbe
00000330: 6d7b c53e 8873 fcbd e794 cfbd ba96 dd3e
00000340: a5c6 30be 3976 bcbc d10c 69be e1da 2e3c
00000350: 0a54 553c e3bf 873d bf3a abbe d1b7 63be
00000360: 2bc3 473e 9fb3 a53e 73aa 6c3e 6d7a 48be
00000370: 7133 af3e 60df 70be 663a a63d e66d b63d
00000380: 6c31 4ebe 1e64 163f 30cd 8e3e b7ee 1dbe
00000390: f5e5 8dbe 8cd4 3b3f 4fe9 b13e fa3b cd3e
000003a0: c624 f33e 346e cb3e 30b4 1a3d 3ee8 08bf
000003b0: 0234 9cbd b598 7c3e 3116 843e ef5a cc3e
000003c0: d32e 073f df14 0abf 89fc dc3e b074 f63e
000003d0: de90 673c b9d2 333e e831 12bf 4ef4 213f
000003e0: 6a3d f13e 6daa 7ebd 07fc 603e b7e9 86be
000003f0: 7953 56bd d653 c23e eb89 c43d 8d57 57be

175 f4 [32]
-0.13965951 -0.6213026 0.25365955 0.43140855 0.36387032 -0.7495134 -0.5812077 0.07138482
-0.09350148 0.22576082 0.53412014 0.807584 0.36883897 0.4110405 -0.68261087 0.6205148
0.68172187 0.5342393 0.7547762 -0.037471686 0.42356232 0.25337937 0.81393206 0.35786614
-0.40416384 -0.5533972 -0.07793978 0.7775296 0.4188491 0.6795288 -0.40051743 0.32313442
00000000: e702 0fbe b00d 1fbf aadf 813e 95e1 dc3e
00000010: 364d ba3e 1ce0 3fbf 07ca 14bf 3432 923d
00000020: b47d bfbd d82d 673e 19bc 083f d3bd 4e3f
00000030: 76d8 bc3e e773 d23e 96bf 2ebf 0fda 1e3f
00000040: 5385 2e3f e8c3 083f 0339 413f e97b 19bd
00000050: 29dd d83e f1ba 813e da5d 503f 3b3a b73e
00000060: 90ee cebe 70ab 0dbf e49e 9fbd 2e0c 473f
00000070: 6473 d63e 99f5 2d3f 9f10 cdbe e071 a53e

177 f4 [32, 32, 1, 1]
0.7456799 0.09055308 0.043420743 -0.95164454 1.2306851 0.39774612 0.41632882 0.12257436
-0.2671446 -0.0611549 -0.65242517 0.061339453 0.35669178 0.29524958 -1.1780785 0.600989
-0.16433206 -0.0863454 0.25641093 0.26768124 -0.5485276 0.64162755 0.062882625 -0.20768331
-0.23622422 -0.97089267 0.7891015 0.9404398 -0.9659176 0.22640412 0.46197855 -1.1515257
0.48761413 0.7331195 0.5817715 -0.02968509 -0.7133548 -0.6309197 -0.22009808 -0.3974783
-1.012471 -0.7295604 -0.48893934 -0.5549204 -0.23535709 -0.5473622 0.03447594 -0.732898
0.8319767 0.32671282 0.6016453 -0.088597216 1.1223282 0.7735198 -0.30290833 0.17852174
-0.326384 -0.61807865 -0.3086927 -0.06782992 -0.31670263 -0.35895553 -0.16425206 -0.1217966
0.1412017 -0.38324028 0.5759777 0.6540589 -0.4268535 -0.581437 -0.43275213 0.53267616
0.71667904 0.6528271 0.35406652 0.082241304 -0.48348248 -0.325625 0.60547423 0.13348609
0.21952765 -0.79668665 -0.3909174 0.013200063 -0.5178403 -0.7601511 0.11764523 -0.36990368
0.2210721 -0.57808936 0.140188 0.5789563 0.49554607 0.579714 0.47945184 0.23150231
-0.49047214 -0.055430025 -1.0862272 0.37589774 -1.0573074 0.28723368 0.21474136 -0.46342745
-0.80694777 -0.4202875 -0.42422998 1.1034931 0.5249779 0.21625718 -0.1875364 0.63961375
-0.43238473 -0.33483225 0.094529025 -0.771078 1.1359966 0.1304963 0.4568166 0.07652349
-1.2835923 -0.18010281 0.030655075 -0.17345348 -0.4871015 0.56574696 -0.06907202 -0.71451366
1.3881187 1.0524926 -0.71633166 0.21141173 -0.08233124 -0.4990074 0.99175584 -1.1723838
0.13518728 0.7664594 0.46047717 -0.49277854 0.71836567 -0.2215263 0.0016704418 -0.62068695
-0.48932174 0.33396462 -0.44292456 0.0010407957 -1.0537373 1.149823 0.5357719 -0.7671788
-0.3157627 0.68362826 -0.06825052 0.86839294 -0.35072187 0.18338524 -0.17282946 -0.7371397
-0.4411806 0.7387802 1.0703924 -0.5451425 0.9001877 0.40657946 -0.67733043 -0.649779
-0.66228914 0.3367156 -0.7177461 -0.33319527 -0.5804085 0.22460955 0.5720905 0.39330852
-0.6151702 0.8940594 -0.79614 -0.6160461 -0.13678522 -0.43270454 -0.432738 -0.78028065
0.8273819 0.88223124 -0.39874017 1.208607 0.9976115 -0.13066092 -0.6938985 -0.2082909
0.04369903 -0.99560136 0.40743276 -0.8348878 -0.2879524 -0.22519402 -0.49136296 -0.006614109
0.3986412 0.43455222 0.28912333 -0.43982428 0.13194014 -0.9623327 0.4285862 -0.22334172
-0.13116011 -0.7045408 0.20380911 -0.6638309 -0.19729625 -0.6350572 0.3281564 -0.5268956
0.23487239 -0.43823305 -0.5025818 0.75321585 1.1834627 0.8437936 0.056331698 0.3895304
0.08827854 0.59584063 0.14758442 0.3845343 0.7173774 -0.45400596 0.3221302 0.5108119
0.8466765 0.9504223 -1.2425884 0.58734953 -0.3547168 -1.0109413 -0.6774102 -0.56575257
-0.41850471 -0.78787637 0.10039777 0.5013312 1.2371563 -1.2100718 -0.122339785 -0.40310577
0.16326289 0.07577091 -0.107045226 -0.042966463 0.3196317 0.08814073 0.674964 1.081683
00000000: e1e4 3e3f e573 b93d f3d9 313d fa9e 73bf
00000010: 1787 9d3f 61a5 cb3e 0d29 d53e 4408 fb3d
00000020: 2dc7 88be 8f7d 7abd 5605 27bf 143f 7b3d
00000030: 4ea0 b63e f42a 973e 47cb 96bf 6ada 193f
00000040: aa46 28be dbd5 b0bd 4b48 833e 840d 893e
00000050: 4e6c 0cbf b441 243f 9bc8 803d efaa 54be
00000060: c3e4 71be 6c8c 78bf 8e02 4a3f aac0 703f
00000070: 6046 77bf 7bd6 673e 7488 ec3e 3265 93bf
00000080: 8fa8 f93e b8ad 3b3f faee 143f 252e f3bc
00000090: 6c9e 36bf f483 21bf 6461 61be 4782 cbbe
000000a0: a698 81bf 78c4 3abf 4256 fabe 430f 0ebf
000000b0: 7301 71be ee1f 0cbf a536 0d3d 349f 3bbf
000000c0: 6dfc 543f e746 a73e 6d05 1a3f 7572 b5bd
000000d0: 73a8 8f3f 6505 463f cd16 9bbe 67ce 363e
000000e0: ce1b a7be 673a 1ebf f80c 9ebe 6aea 8abd
000000f0: d926 a2be 05c9 b7be b131 28be 7f70 f9bd
00000100: 2e97 103e 1238 c4be 4673 133f 6770 273f
00000110: 8b8c dabe 0ed9 14bf b091 ddbe 775d 083f
00000120: 4778 373f ad1f 273f 3548 b53e 216e a83d
00000130: 048b f7be 52b8 a6be 5c00 1b3f 94b0 083e
00000140: dbcb 603e a8f3 4bbf 5326 c8be 1445 583c
00000150: 2f91 04bf 4399 42bf fbef f03d 0464 bdbe
00000160: b960 623e aafd 13bf 718d 0f3e 7b36 143f
00000170: 37b8 fd3e 2368 143f b67a f53e f10e 6d3e
00000180: 2a1f fbbe 980a 63bd 7e09 8bbf ab75 c03e
00000190: d955 87bf 4b10 933e 29e5 5b3e 5d46 edbe
000001a0: 2194 4ebf ec2f d7be ac34 d9be 433f 8d3f
000001b0: f464 063f 8672 5d3e 8b09 40be babd 233f
000001c0: 8861 ddbe 226f abbe 6f98 c13d 5e65 45bf
000001d0: 5668 913f d2a0 053e dee3 e93e 59b8 9c3d
000001e0: c14c a4bf df6c 38be 5a20 fb3c ca9d 31be
000001f0: 5e65 f9be cbd4 103f a275 8dbd 5eea 36bf
00000200: e0ad b13f 14b8 863f 8361 37bf 517c 583e
00000210: 489d a8bd e67d ffbe b6e3 7d3f ac10 96bf
00000220: 896e 0a3e af36 443f aac3 eb3e 784d fcbe
00000230: d0e6 373f cad7 62be baf2 da3a 57e5 1ebf
00000240: 6188 fabe 69fd aa3e 02c7 e2be 4f6b 883a
00000250: dde0 86bf 662d 933f 5928 093f d465 44bf
00000260: a6ab a1be 4302 2f3f eec6 8bbd 004f 5e3f
00000270: d191 b3be 57c9 3b3e 35fa 30be 30b5 3cbf
00000280: 6ce2 e1be b320 3d3f 9e02 893f 758e 0bbf
00000290: b372 663f 2f2b d03e 8765 2dbf eb57 26bf
000002a0: c88b 29bf fd65 ac3e 35be 37bf 9298 aabe
000002b0: a795 14bf 0c00 663e 8674 123f bc5f c93e
000002c0: cb7b 1dbf 14e1 643f d5cf 4bbf 32b5 1dbf
000002d0: 6d11 0cbe 738b ddbe d68f ddbe 79c0 47bf
000002e0: 4dcf 533f e8d9 613f ac27 ccbe a2b3 9a3f
000002f0: 7863 7f3f facb 05be 55a3 31bf 364a 55be
00000300: c1fd 323d bbdf 7ebf 079b d03e 35bb 55bf
00000310: 7f6e 93be 4399 66be ed93 fbbe 2bbb d8bb
00000320: b31a cc3e a17d de3e f907 943e a630 e1be
00000330: 511b 073e 705b 76bf a76f db3e b1b3 64be
00000340: d64e 06be c95c 34bf 56b3 503e d2f0 29bf
00000350: 0708 4abe 1c93 22bf 1e04 a83e a1e2 06bf
00000360: 6382 703e 1560 e0be 33a9 00bf c1d2 403f
00000370: b57b 973f db02 583f 11bc 663d 8770 c73e
00000380: 61cb b43d 0389 183f 5f20 173e aee1 c43e
00000390: 0ca6 373f 7873 e8be 40ee a43e 92c4 023f
000003a0: cbbf 583f e04e 733f 230d 9fbf 8a5c 163f
000003b0: 719d b5be 8666 81bf c16a 2dbf 29d5 10bf
000003c0: 4046 d6be 44b2 49bf 599d cd3d 3e57 003f
000003d0: 235b 9e3f a2e3 9abf 488d fabd e163 cebe
000003e0: 632e 273e c72d 9b3d 873a dbbd 9afd 2fbd
000003f0: c4a6 a33e 2183 b43d 71ca 2c3f 9774 8a3f

178 f4 [32]
0.3562576 0.7499341 -0.66368675 -0.36852708 -0.05976776 1.0906959 -0.04762911 -0.12928794
-0.20265457 -0.17178984 0.04501359 0.15324311 -0.037701033 -0.59707105 -0.49271637 -0.66607034
0.50039256 -1.070187 0.030161656 -1.1537884 -0.8589501 0.8856619 1.2811513 -0.7716259
0.22693437 -0.27371943 -0.027435476 -0.11301133 -0.09475549 -1.0063432 0.9132828 0.03404276
00000000: 6567 b63e aefb 3f3f 60e7 29bf 95af bcbe
00000010: 0acf 74bd ec9b 8b3f be16 43bd 0f64 04be
00000020: ae84 4fbe ade9 2fbe 2c60 383d c3eb 1c3e
00000030: 666c 1abd a6d9 18bf 5245 fcbe 9683 2abf
00000040: ba19 003f e3fb 88bf 9415 f73c 57af 93bf
00000050: 27e4 5bbf bdba 623f c4fc a33f 4689 45bf
00000060: 7c61 683e f424 8cbe 5dc0 e0bc 7c72 e7bd
00000070: 2b0f c2bd dbcf 80bf e7cc 693f 6c70 0b3d

180 f4 [64, 32, 1, 1]
-0.16054957 -0.29944855 0.21590436 0.09361963 -0.17413679 0.15903692 -0.14204693 -0.24929053
-0.13255964 0.18115525 0.17693253 0.23790038 -0.006210965 0.11117374 -0.03271367 -0.17656077
0.092810124 -0.04347463 0.063312255 0.1423487 -0.1621753 -0.08199816 -0.056151625 0.07995809
-0.21373864 0.2581253 0.19148871 -0.08141508 0.09701094 -0.0008138325 -0.02187322 0.13328013
-0.08434396 -0.12760623 0.06653882 -0.08502383 0.08314908 0.1347005 -0.03700244 0.11390384
0.019727057 -0.18158945 -0.14174376 -0.19609714 0.005527906 0.1117571 -0.10669712 0.036322694
-0.11339471 0.05096562 -0.029111955 -0.07764758 0.05372303 -0.13457233 -0.18430974 0.043403868
-0.05025199 0.0069433637 -0.106788196 0.06923937 0.026475035 -0.1157938 0.05837751 -0.13697158
-0.22904578 -0.038610525 0.02699461 0.08255743 0.039031956 0.00070828927 -0.043692395 -0.2677389
0.27033666 0.04815298 0.24074106 -0.19224714 -0.047955357 0.03613173 -0.058764767 -0.13802128
0.15319408 0.019228067 -0.24031271 0.20080654 0.09569201 -0.048467662 0.22774379 0.17507355
-0.2535055 0.056622677 0.018199218 0.09765583 0.17063564 -0.020185374 0.08899729 -0.14167659
-0.19835025 0.14997724 0.1224138 0.095435195 0.048100036 -0.031411607 -0.063485816 -0.060204424
-0.17467883 0.14604554 0.07721976 -0.16771874 0.13239191 0.11466968 -0.118985444 -0.16393289
0.018000647 -0.0038333065 -0.060594242 -0.18558292 0.08514128 -0.1120343 -0.04772034 0.091990754
-0.0030403417 0.004316407 0.13981725 -0.09124265 0.06421814 -0.028709661 0.12667498 -0.13334727
-0.10749403 -0.15901811 -0.20352525 -0.06367262 -0.034354426 -0.15687506 0.03215606 -0.14115174
-0.19329475 0.03316439 -0.17950012 0.18785442 -0.091622934 -0.18069218 -0.046633255 -0.03427781
-0.19001377 0.098661505 -0.14228328 -0.09961462 -0.20254637 0.035925508 0.06404407 0.022119274
-0.060654417 -0.12114256 0.10471044 0.089431964 -0.06852511 0.09063615 0.020010844 0.0015250596
-0.1407555 -0.13832675 0.09576689 -0.030918494 -0.09755449 -0.16266333 0.088305645 -0.00081479264
-0.10653839 0.18070298 -0.15103363 0.15206808 0.043325324 0.15351976 -0.14517869 0.15021788
-0.08648994 -0.080298625 0.16683884 0.16585778 -0.07016892 -0.13583797 -0.011463954 0.099609666
0.054512393 0.06298894 -0.0940154 0.07976148 -0.087974444 0.055463754 -0.15679862 -0.1241159
-0.17232274 0.16621906 -0.049708128 0.031140137 -0.105098315 0.05049876 -0.21803203 -0.1313251
0.17761198 0.17975076 -0.15496734 -0.006814858 -0.15044735 0.1777699 0.1460343 -0.10513489
0.013319565 -0.07086657 -0.11902486 -0.024628676 -0.13411526 -0.15446559 -0.11707405 -0.03552921
0.038167767 -0.16923188 0.07098402 0.03981025 0.13800715 0.14243647 -0.23369524 -0.24837285
-0.015086218 -0.10485783 0.01876014 0.19700427 -0.20004961 0.117479704 0.14517462 -0.05062321
-0.09673278 -0.17654227 0.030383918 0.053396754 0.043816477 -0.21693711 0.0042991606 0.20252043
-0.17450647 0.12784411 -0.07226679 -0.14088371 -0.06910611 -0.03683823 0.11201415 -0.12444528
-0.18939763 -0.062068537 -0.014200138 -0.112432204 -0.12962683 -0.17659685 0.048215725 -0.2620073
00000000: 1b67 24be 5251 99be 0816 5d3e a6bb bf3d
00000010: ea50 32be 93da 223e c074 11be 0446 7fbe
00000020: b7bd 07be c380 393e cd2d 353e 289c 733e
00000030: 5a85 cbbb 0faf e33d c5fe 05bd 59cc 34be
00000040: 3c13 be3d 7412 32bd dba9 813d dcc3 113e
00000050: 4811 26be a7ee a7bd 3fff 65bd 11c1 a33d
00000060: 4dde 5abe 0029 843e 9e15 443e f3bc a6bd
00000070: acad c63d 6057 55ba 782f b3bc 967a 083e
00000080: 87bc acbd 35ab 02be 8145 883d f920 aebd
00000090: 114a aa3d eeee 093e df8f 17bd 6b46 e93d
000000a0: a39a a13c 96f2 39be 4725 11be b0cd 48be
000000b0: 7023 b53b e8e0 e43d 0584 dabd 1bc7 143d
000000c0: 7c3b e8bd 53c1 503d 327c eebc b205 9fbd
000000d0: ae0c 5c3d 54cd 09be b1bb 3cbe 41c8 313d
000000e0: 08d5 4dbd 2885 e33b c5b3 dabd 5fcd 8d3d
000000f0: 2ce2 d83c 4d25 edbd 421d 6f3d 4742 0cbe
00000100: fa8a 6abe 1226 1ebd cd23 dd3c df13 a93d
00000110: f9df 1f3d 7dac 393a ccf6 32bd 1315 89be
00000120: 9169 8a3e 0f3c 453d d384 763e 6fdc 44be
00000130: d66c 44bd ddfe 133d 53b3 70bd 7355 0dbe
00000140: e9de 1c3e 2e84 9d3c 8914 76be 3ba0 4d3e
00000150: 2cfa c33d 0786 46bd ab35 693e 7b46 333e
00000160: 79cb 81be 2eed 673d 8716 953c c8ff c73d
00000170: 1cbb 2e3e cc5b a5bc 3644 b63d ab13 11be
00000180: 541c 4bbe a293 193e 16b4 fa3d 8773 c33d
00000190: 8b04 453d 75a9 00bd da04 82bd ea98 76bd
000001a0: 02df 32be f68c 153e 6525 9e3d 76be 2bbe
000001b0: bf91 073e f0d7 ea3d a4ae f3bd 06de 27be
000001c0: 1876 933c 3638 7bbb ab31 78bd 7309 3ebe
000001d0: 8d5e ae3d 3d72 e5bd 6776 43bd a665 bc3d
000001e0: 7840 47bb a570 8d3b 412c 0f3e 6ddd babd
000001f0: cd84 833d 8630 ebbc 16b7 013e 308c 08be
00000200: d425 dcbd a5d5 22be ec68 50be ca66 82bd
00000210: 3ab7 0cbd dba3 20be 13b6 033d 158a 10be
00000220: 0fef 45be 62d7 073d e1ce 37be e95c 403e
00000230: cea4 bbbd 5f07 39be 8302 3fbd e466 0cbd
00000240: f892 42be 0b0f ca3d b5b2 11be c002 ccbd
00000250: 5168 4fbe a026 133d 8a29 833d 7b33 b53c
00000260: c470 78bd 9719 f8bd 6d72 d63d 1b28 b73d
00000270: e556 8cbd 729f b93d c8ed a33c 82e4 c73a
00000280: 3622 10be 87a5 0dbe 6e21 c43d c848 fdbc
00000290: a6ca c7bd 3791 26be 97d9 b43d cf97 55ba
000002a0: cd30 dabd 340a 393e 8fa8 1abe bcb7 1b3e
000002b0: e575 313d 4934 1d3e b9a9 14be b7d2 193e
000002c0: a321 b1bd 9b73 a4bd cdd7 2a3e 9fd6 293e
000002d0: b9b4 8fbd 1c19 0bbe 4fd3 3bbc 2700 cc3d
000002e0: 6348 5f3d 5800 813d 258b c0bd fd59 a33d
000002f0: f22b b4bd f62d 633d d18f 20be 7a30 febd
00000300: 5f75 30be 5435 2a3e c09a 4bbd 9a19 ff3c
00000310: c93d d7bd cad7 4e3d ca43 5fbe 167a 06be
00000320: eadf 353e 9510 383e c2af 1ebe 2c4f dfbb
00000330: df0e 1abe 5009 363e 048a 153e f650 d7bd
00000340: 4e3a 5a3c 7e22 91bd 4ec3 f3bd 14c2 c9bc
00000350: 8355 09be 3a2c 1ebe 85c4 efbd 1487 11bd
00000360: ce55 1c3d 1f4b 2dbe 1260 913d 1310 233d
00000370: bf51 0d3e deda 113e ce4d 6fbe 7455 7ebe
00000380: 2f2c 77bc b4bf d6bd ddae 993c 7dbb 493e
00000390: ced9 4cbe 3399 f03d a8a8 143e 485a 4fbd
000003a0: d61b c6bd 7fc7 34be b2e7 f83c 8eb6 5a3d
000003b0: e878 333d c324 5ebe f9df 8c3b 8461 4f3e
000003c0: d3b1 32be 91e9 023e 9c00 94bd d243 10be
000003d0: 8187 8dbd afe3 16bd ad67 e53d 2bdd febd
000003e0: 74f1 41be 943b 7ebd b2a7 68bc db42 e6bd
000003f0: e5bc 04be ced5 34be da7d 453d d225 86be

181 f4 [64]
-0.010496438 0.9567552 -0.2740448 0.35154265 1.700217 0.3382719 1.1845746 1.3495674
-0.44302788 -0.99666923 0.9657887 -0.84839857 1.1286048 0.51491755 -0.08962796 -0.25951922
-0.43887436 0.7892344 -0.059461653 0.80123866 -0.79043025 -0.48950562 0.53793156 -0.8551587
-0.8166263 -0.25603387 0.13772501 -0.6493695 0.8006445 0.083193816 -0.5236755 -0.63690484
-0.2759408 0.6685271 0.55218565 0.4507465 0.55333966 1.2278568 1.5129262 -1.3699776
1.1513414 -0.5935059 1.0592557 -0.30927616 -0.40048635 0.0707849 -0.028685007 0.27640164
0.03452623 0.97424734 0.5923645 -1.6845939 1.3568578 -0.29884192 -0.09392366 -0.0153550925
0.5427875 0.7704136 -0.35351297 0.3901966 -0.30617872 -1.5756296 -0.4909582 -0.9883328
00000000: 40f9 2bbc e9ed 743f 9a4f 8cbe 66fd b33e
00000010: b6a0 d93f f931 ad3e 24a0 973f a0be ac3f
00000020: 8dd4 e2be b725 7fbf ee3d 773f a630 59bf
00000030: 1f76 903f a3d1 033f dd8e b7bd b4df 84be
00000040: 24b4 e0be 440b 4a3f 108e 73bd fa1d 4d3f
00000050: a359 4abf 7ba0 fabe e2b5 093f aeeb 5abf
00000060: 6c0e 51bf df16 83be c907 0d3e 143d 26bf
00000070: 0af7 4c3f 8561 aa3d 990f 06bf 320c 23bf
00000080: 1d48 8dbe 9824 2b3f 0a5c 0d3f 3fc8 e63e
00000090: aba7 0d3f 692a 9d3f 91a7 c13f 6d5b afbf
000000a0: 285f 933f 01f0 17bf b195 873f 7259 9ebe
000000b0: 8c0c cdbe acf7 903d d2fc eabc 8484 8d3e
000000c0: 606b 0d3d 4668 793f 33a5 173f c6a0 d7bf
000000d0: 84ad ad3f cf01 99be 0c5b c0bd ed93 7bbc
000000e0: 1ff4 0a3f d339 453f a7ff b4be d9c7 c73e
000000f0: 75c3 9cbe 3bae c9bf e05e fbbe 6103 7dbf
