model/fr_gender.onnx (onnx, 343725 bytes, 61 tensors)

funsion_block_stream1_stage_3_before_PB.0.weight f4 [10, 32, 1, 1]
000000 a5 66 00 80 97 f0 01 80 cd c2 01 00 16 11 01 00
       -3.6822e-41 -1.78143e-40 1.61717e-40 9.7965e-41
000010 ed 91 02 80 2a 05 02 80 06 ce 00 00 10 cb 00 00
       -2.36019e-40 -1.85524e-40 7.3907e-41 7.2845e-41
000020 d7 77 02 80 9f 74 02 80 ed 72 02 00 39 7f 02 80
       -2.26661e-40 -2.25507e-40 2.24899e-40 -2.2931e-40
000030 7b 6a 02 80 aa 7e 00 80 40 20 02 80 9d 2e 02 80
       -2.21869e-40 -4.5439e-41 -1.9524e-40 -2.00393e-40
000040 df 6b 02 00 da 8b 01 80 58 e3 00 00 49 24 02 00
       2.22368e-40 -1.42005e-40 8.1556e-41 1.96688e-40
000050 d7 eb 01 80 ca e5 01 80 d3 5f 02 00 77 f0 01 00
       -1.76439e-40 -1.74268e-40 2.18046e-40 1.78098e-40
000060 15 11 02 00 68 6f 02 80 a3 51 02 80 36 53 02 80
       1.89799e-40 -2.23636e-40 -2.12957e-40 -2.13521e-40
000070 77 04 02 00 7d 84 02 00 1c 7f 02 00 b1 81 02 00
       1.85273e-40 2.31199e-40 2.29269e-40 2.30196e-40
000080 42 53 02 80 77 81 02 00 fb e3 01 80 a1 49 02 00
       -2.13538e-40 2.30114e-40 -1.7362e-40 2.10084e-40
000090 a0 cd 00 80 db 6a 02 80 b9 4d 00 00 cb f8 01 00
       -7.3764e-41 -2.22004e-40 2.7882e-41 1.81086e-40
0000a0 55 b7 00 00 e9 76 01 00 5b a4 02 00 ff 11 02 80
       6.5767e-41 1.34492e-40 2.4263e-40 -1.90127e-40
0000b0 9c ae 01 80 34 7c 02 00 f5 06 02 80 df ef 01 00
       -1.54474e-40 2.28227e-40 -1.86167e-40 1.77885e-40
0000c0 94 35 01 00 07 eb 01 80 e5 35 02 00 e3 26 02 00
       1.11056e-40 -1.76147e-40 2.03005e-40 1.97621e-40
0000d0 fa 42 01 80 8a 18 00 00 72 87 02 80 72 27 02 00
       -1.15862e-40 8.803e-42 -2.3226e-40 1.97821e-40
0000e0 39 73 02 80 98 43 02 00 17 98 00 00 df 9b 00 80
       -2.25005e-40 2.07919e-40 5.456e-41 -5.5916e-41
0000f0 19 1c 02 80 52 5e 02 00 0d 15 01 00 02 6b 02 80
       -1.9375e-40 2.17507e-40 9.9387e-41 -2.22058e-40
000100 10 3e 02 80 fc 5b 02 80 1f 2e 01 00 ab 2e 02 80
       -2.05935e-40 -2.16669e-40 1.0838e-40 -2.00412e-40
000110 66 1f 02 80 9a 31 00 00 fe 6f 00 00 f4 84 00 80
       -1.94935e-40 1.7794e-41 4.0175e-41 -4.7695e-41
000120 ae 9b 01 00 24 2d 02 00 b1 62 02 00 4c 70 00 80
       1.47683e-40 1.99864e-40 2.19075e-40 -4.0285e-41
000130 e8 da 01 00 ac 85 01 00 d4 47 02 80 a2 07 01 80
       1.70364e-40 1.39788e-40 -2.09438e-40 -9.4574e-41
000140 f0 0b 02 80 74 60 02 80 b5 14 02 80 fb 9e 02 00
       -1.87953e-40 -2.18272e-40 -1.91099e-40 2.40702e-40
000150 b3 a4 02 00 cf 8f 01 80 fb 79 02 80 ca ab 00 00
       2.42754e-40 -1.43424e-40 -2.2743e-40 6.1626e-41
000160 f3 12 02 00 24 4c 02 00 93 d1 00 00 70 66 02 00
       1.90469e-40 2.10985e-40 7.5181e-41 2.20419e-40
000170 98 59 01 00 45 8a 01 00 19 74 02 00 3b 96 00 00
       1.23976e-40 1.41437e-40 2.25319e-40 5.3893e-41
000180 07 42 00 00 63 07 02 80 0e e1 00 80 f5 6b 02 00
       2.3686e-41 -1.86321e-40 -8.0734e-41 2.22399e-40
000190 b2 45 01 00 63 6e 02 00 ae b9 01 80 e3 d8 01 00
       1.16837e-40 2.2327e-40 -1.58445e-40 1.6964e-40
0001a0 eb 50 02 00 3f e4 00 80 6a 74 02 80 f0 60 02 00
       2.12699e-40 -8.1879e-41 -2.25432e-40 2.18446e-40
0001b0 d5 80 02 00 f3 0e 02 80 c6 d2 01 00 62 1c 02 80
       2.29887e-40 -1.89034e-40 1.67447e-40 -1.93853e-40
0001c0 d4 9c 02 80 34 47 01 00 f6 d1 01 00 8d 89 02 00
       -2.3993e-40 1.17378e-40 1.67155e-40 2.33015e-40
0001d0 e6 84 02 80 88 1a 02 00 8b 6b 02 00 4a 10 02 80
       -2.31346e-40 1.93189e-40 2.2225e-40 -1.89514e-40
0001e0 67 44 02 80 dd 33 00 80 13 fe 01 80 b4 27 00 00
       -2.08209e-40 -1.8605e-41 -1.8298e-40 1.4243e-41
0001f0 78 c5 00 00 e0 7b 00 00 37 be 01 00 08 40 02 00
       7.0838e-41 4.4438e-41 1.60072e-40 2.06641e-40
000200 57 77 02 80 24 40 02 80 08 ad 01 80 37 16 02 00
       -2.26482e-40 -2.0668e-40 -1.53907e-40 1.9164e-40
000210 44 26 02 80 86 7f 01 00 d1 8a 02 00 e5 4d 02 00
       -1.97398e-40 1.37582e-40 2.33469e-40 2.11614e-40
000220 90 0a 00 00 9f d3 01 00 50 57 02 00 f2 48 02 80
       3.789e-42 1.67751e-40 2.14993e-40 -2.09839e-40
000230 62 55 02 80 83 69 02 00 f3 9f 00 80 94 d7 01 80
       -2.143e-40 2.21521e-40 -5.7379e-41 -1.6917e-40
000240 ee 1f 02 00 01 06 02 00 a9 42 02 80 64 8d 02 80
       1.95125e-40 1.85825e-40 -2.07584e-40 -2.34392e-40
000250 8a 32 01 80 9c 34 02 80 98 69 02 00 20 78 01 00
       -1.09965e-40 -2.02544e-40 2.21551e-40 1.34928e-40
000260 60 f9 01 00 65 17 02 80 08 0b 02 00 f4 96 02 80
       1.81294e-40 -1.92063e-40 1.87628e-40 -2.37823e-40
000270 ab 55 00 00 57 c9 01 80 86 37 02 00 d2 84 02 80
       3.0732e-41 -1.64063e-40 2.03589e-40 -2.31318e-40
000280 e2 30 02 00 c8 5c 01 00 88 99 01 00 56 c2 01 00
       2.01207e-40 1.25119e-40 1.46912e-40 1.6155e-40
000290 09 ea 00 80 dc 37 02 80 9b 23 02 80 07 89 01 00
       -8.3956e-41 -2.0371e-40 -1.96444e-40 1.40992e-40
0002a0 6e 9c 00 00 11 3c 00 80 d4 a1 02 80 3b 51 02 00
       5.6116e-41 -2.1548e-41 -2.41724e-40 2.12811e-40
0002b0 b8 35 02 80 1d 6f 02 80 0e 02 02 80 4e 4d 02 00
       -2.02942e-40 -2.23531e-40 -1.84408e-40 2.11403e-40
0002c0 27 9e 02 80 58 30 00 80 3e 72 02 00 8b 27 02 00
       -2.40405e-40 -1.7342e-41 2.24653e-40 1.97856e-40
0002d0 bc 9a 02 00 7d fe 01 00 9f 46 01 00 1e 17 02 80
       2.39179e-40 1.83129e-40 1.1717e-40 -1.91964e-40
0002e0 63 5b 02 00 e4 11 01 00 b8 d8 01 00 29 1c 02 80
       2.16454e-40 9.8253e-41 1.6958e-40 -1.93773e-40
0002f0 d9 f0 01 00 5f 19 01 80 a4 12 02 00 37 83 02 00
       1.78235e-40 -1.00937e-40 1.90358e-40 2.30742e-40
000300 fc d1 01 80 89 1d 02 00 db fd 00 00 0a 3e 02 00
       -1.67164e-40 1.94266e-40 9.1066e-41 2.05926e-40
000310 05 61 00 80 1d 29 02 00 a1 6a 02 80 5c 6a 02 00
       -3.4804e-41 1.9842e-40 -2.21922e-40 2.21826e-40
000320 d2 15 02 80 9e 8e 02 80 dd 9a 01 00 3d 42 02 80
       -1.91499e-40 -2.34832e-40 1.4739e-40 -2.07433e-40
000330 67 42 02 00 72 e3 00 80 e2 13 02 80 a7 95 02 80
       2.07492e-40 -8.1592e-41 -1.90804e-40 -2.37356e-40
000340 6d 8a 01 80 ef 93 02 80 16 8c 01 00 40 f2 01 00
       -1.41493e-40 -2.3674e-40 1.42089e-40 1.78738e-40
000350 18 60 00 80 00 10 00 80 57 7e 02 80 76 cc 00 80
       -3.4472e-41 -5.74e-42 -2.28993e-40 -7.3347e-41
000360 84 5e 01 80 e7 6d 00 00 9f c2 01 00 4a 56 02 00
       -1.25741e-40 3.9426e-41 1.61652e-40 2.14626e-40
000370 6c 04 02 80 5f f1 00 80 b1 09 02 80 21 25 02 80
       -1.85257e-40 -8.6588e-41 -1.87148e-40 -1.9699e-40
000380 ea 6c 02 00 7a f6 00 00 08 97 02 80 12 75 02 80
       2.22742e-40 8.8419e-41 -2.37851e-40 -2.25668e-40
000390 f0 6a 02 00 6a 39 02 80 9c 1d 02 80 fd 3c 02 00
       2.22033e-40 -2.04267e-40 -1.94293e-40 2.0555e-40
0003a0 72 15 02 80 c8 da 01 80 08 42 02 80 2e 78 02 80
       -1.91364e-40 -1.7032e-40 -2.07359e-40 -2.26783e-40
0003b0 bb ff 00 00 e7 9b 02 80 f1 7c 00 00 f1 d9 00 00
       9.1739e-41 -2.39598e-40 4.482e-41 7.8183e-41
0003c0 bc 3f 00 80 29 21 00 00 5c 56 02 80 11 40 02 80
       -2.2864e-41 1.1896e-41 -2.14651e-40 -2.06654e-40
0003d0 01 66 00 80 74 b4 01 00 da 2b 00 80 44 50 02 00
       -3.6592e-41 1.5657e-40 -1.5731e-41 2.12465e-40
0003e0 9c 9d 02 80 a7 37 02 00 43 8b 02 80 37 5e 02 00
       -2.4021e-40 2.03635e-40 -2.33629e-40 2.17469e-40
0003f0 9f 96 01 80 c6 73 02 00 64 6c 02 80 17 74 02 00
       -1.45868e-40 2.25203e-40 -2.22554e-40 2.25316e-40

funsion_block_stream1_stage_3_before_PB.0.bias f4 [10]
000000 34 40 01 80 3e 35 02 80 db 52 02 00 46 79 01 80
       -1.14867e-40 -2.0277e-40 2.13394e-40 -1.3534e-40
000010 ed 69 02 80 89 f8 01 00 98 cd 01 00 a5 37 02 00
       -2.2167e-40 1.80993e-40 1.65589e-40 2.03632e-40
000020 20 6f 02 80 40 2f 00 00
       -2.23535e-40 1.695e-41

funsion_block_stream1_stage_3_prediction_block.1.weight f4 [3, 160]
000000 8f 7c 02 00 d9 6b 02 80 55 ab 00 00 6f 14 02 00
       2.28354e-40 -2.2236e-40 6.1462e-41 1.91001e-40
000010 9d bb 01 80 84 08 02 00 64 51 02 00 38 16 02 80
       -1.59138e-40 1.86726e-40 2.12868e-40 -1.91642e-40
000020 47 89 02 80 31 76 02 80 9e 26 02 80 82 70 02 80
       -2.32917e-40 -2.2607e-40 -1.97524e-40 -2.24031e-40
000030 68 04 00 80 f6 53 02 80 44 45 02 80 ad a0 02 00
       -1.58e-42 -2.1379e-40 -2.08519e-40 2.4131e-40
000040 d1 51 02 80 89 a5 02 00 da 55 02 80 06 76 02 00
       -2.13021e-40 2.43054e-40 -2.14469e-40 2.2601e-40
000050 91 d2 00 00 6a 28 02 80 58 a5 02 80 d3 a3 01 00
       7.5537e-41 -1.98169e-40 -2.42985e-40 1.50605e-40
000060 33 6a 02 80 0a 3f 00 00 40 1a 02 00 15 63 01 80
       -2.21768e-40 2.2614e-41 1.93088e-40 -1.2738e-40
000070 39 5c 02 00 0e 57 02 00 3b 6f 02 80 9d c4 00 00
       2.16754e-40 2.149e-40 -2.23573e-40 7.0532e-41
000080 05 fb 01 00 d6 84 02 00 2e 99 01 00 10 7d 02 00
       1.81884e-40 2.31324e-40 1.46786e-40 2.28535e-40
000090 1e 4e 02 00 d0 a8 00 00 24 63 02 00 b2 4d 02 80
       2.11694e-40 6.0559e-41 2.19236e-40 -2.11543e-40
0000a0 c8 06 00 00 e2 95 01 80 91 9b 00 00 76 03 00 00
       2.433e-42 -1.45603e-40 5.5807e-41 1.242e-42
0000b0 ed 38 01 00 5c 90 00 00 46 51 02 80 3b 47 02 80
       1.12257e-40 5.1786e-41 -2.12826e-40 -2.09224e-40
0000c0 5c 33 02 00 a5 15 02 00 a4 b8 01 80 43 30 00 00
       2.02095e-40 1.91436e-40 -1.58072e-40 1.7313e-41
0000d0 cd 8e 02 80 60 a3 01 80 9e 83 02 80 11 d1 01 00
       -2.34898e-40 -1.50443e-40 -2.30886e-40 1.66834e-40
0000e0 80 21 00 00 09 6b 02 00 89 8e 00 80 0b 21 01 80
       1.2018e-41 2.22068e-40 -5.1132e-41 -1.03689e-40
0000f0 90 8d 02 00 55 04 02 00 31 38 02 00 00 83 00 80
       2.34454e-40 1.85225e-40 2.03829e-40 -4.6994e-41
000100 d4 1f 00 80 a3 1b 02 00 8d 27 02 00 d6 66 02 00
       -1.1418e-41 1.93585e-40 1.97859e-40 2.20562e-40
000110 b5 d6 01 80 75 4c 02 00 6b b7 01 80 b2 a8 02 80
       -1.68858e-40 2.11099e-40 -1.57633e-40 -2.44187e-40
000120 e3 06 02 80 a3 5d 02 80 05 eb 01 80 9f 6c 02 80
       -1.86141e-40 -2.17262e-40 -1.76145e-40 -2.22637e-40
000130 44 b7 01 80 fa 0f 02 80 b7 59 00 00 83 40 02 80
       -1.57579e-40 -1.89402e-40 3.2184e-41 -2.06813e-40
000140 23 12 02 80 8b 48 02 00 7e 9a 00 80 f9 46 02 00
       -1.90177e-40 2.09695e-40 -5.5421e-41 2.09131e-40
000150 c8 57 02 00 14 4b 02 00 3a 9c 00 00 33 0f 02 00
       2.15161e-40 2.10604e-40 5.6044e-41 1.89123e-40
000160 a6 cc 01 00 03 e6 00 80 b2 9a 02 00 ba 5a 02 00
       1.6525e-40 -8.2513e-41 2.39165e-40 2.16218e-40
000170 bd 7e 02 00 8a 11 02 00 09 e0 01 00 ca 83 02 80
       2.29136e-40 1.89963e-40 1.72204e-40 -2.30948e-40
000180 db 50 01 80 c2 f3 00 00 09 10 01 00 93 09 02 00
       -1.20841e-40 8.7444e-41 9.7588e-41 1.87106e-40
000190 1b d1 01 80 7f 64 02 80 90 54 02 00 ba e0 00 00
       -1.66848e-40 -2.19722e-40 2.14006e-40 8.0617e-41
0001a0 2a 27 00 80 25 3f 02 00 7e 83 02 00 b7 cd 01 80
       -1.405e-41 2.06323e-40 2.30842e-40 -1.65632e-40
0001b0 a8 2a 00 80 06 7c 01 00 02 85 00 80 ae 75 00 80
       -1.5302e-41 1.36327e-40 -4.7714e-41 -4.2216e-41
0001c0 6c a6 02 80 85 02 00 00 bf 52 02 00 04 da 01 00
       -2.43372e-40 9.04e-43 2.13355e-40 1.70045e-40
0001d0 92 11 02 00 70 13 01 80 9c 5e 02 80 34 2a 02 80
       1.89974e-40 -9.8808e-41 -2.1761e-40 -1.9881e-40
0001e0 cb a8 02 80 0f 62 01 80 eb 2b 02 80 b9 70 00 80
       -2.44223e-40 -1.27012e-40 -1.99426e-40 -4.0437e-41
0001f0 a8 29 02 00 cb e6 01 00 d2 2c 00 00 a2 a1 02 80
       1.98614e-40 1.74628e-40 1.6078e-41 -2.41654e-40
000200 2c a8 00 00 02 c2 01 00 e7 9d 02 80 41 3a 02 00
       6.0329e-41 1.61432e-40 -2.40316e-40 2.04569e-40
000210 5b a6 01 00 82 81 02 80 47 ba 00 80 c1 5d 01 80
       1.51513e-40 -2.3013e-40 -6.6824e-41 -1.25468e-40
000220 cd 0d 01 00 75 88 02 80 1d a6 00 00 ba a6 02 00
       9.6786e-41 -2.32623e-40 5.959e-41 2.43481e-40
000230 46 7a 00 00 f0 a7 02 80 3b 64 01 80 a4 47 02 80
       4.3863e-41 -2.43916e-40 -1.27791e-40 -2.09371e-40
000240 c4 13 02 00 a5 76 01 00 8f 95 01 00 e9 6d 02 80
       1.90762e-40 1.34397e-40 1.45487e-40 -2.231e-40
000250 7d 47 00 80 cb 58 00 00 b3 ef 01 00 5c 79 02 80
       -2.5645e-41 3.1853e-41 1.77823e-40 -2.27207e-40
000260 df 9d 02 80 78 b7 01 00 db aa 01 80 1d 8c 01 00
       -2.40304e-40 1.57652e-40 -1.53127e-40 1.42099e-40
000270 c6 6e 02 80 51 65 01 00 a2 3e 02 80 c5 b0 01 80
       -2.23409e-40 1.28181e-40 -2.0614e-40 -1.55248e-40
000280 ce 40 02 80 69 dc 00 80 0b 4a 00 80 8c 6c 00 80
       -2.06919e-40 -7.9068e-41 -2.6562e-41 -3.8939e-41
000290 82 ea 00 80 31 10 02 00 48 31 02 00 03 27 02 00
       -8.4126e-41 1.8948e-40 2.0135e-40 1.97666e-40
0002a0 78 f7 01 80 07 6d 01 80 c6 44 02 00 ea 8c 00 80
       -1.8061e-40 -1.30947e-40 2.08342e-40 -5.055e-41
0002b0 4b fe 01 80 fe 4d 02 80 54 3f 02 80 ce 51 00 00
       -1.83059e-40 -2.1165e-40 -2.06389e-40 2.9346e-41
0002c0 19 85 02 00 19 6e 00 00 cc e1 00 00 a6 6c 00 80
       2.31417e-40 3.9496e-41 8.1e-41 -3.8976e-41
0002d0 0d a9 02 00 98 54 02 80 25 4f 01 00 ef 58 00 00
       2.44315e-40 -2.14018e-40 1.20227e-40 3.1903e-41
0002e0 97 59 01 80 25 a2 02 00 df 10 02 00 aa b0 00 00
       -1.23974e-40 2.41837e-40 1.89723e-40 6.3375e-41
0002f0 d5 fe 01 00 da a0 01 00 1b 7a 00 00 31 8b 01 80
       1.83252e-40 1.49538e-40 4.3803e-41 -1.41768e-40
000300 7e 48 02 80 01 b2 01 80 f1 12 02 80 14 0c 02 00
       -2.09676e-40 -1.55691e-40 -1.90466e-40 1.88004e-40
000310 89 23 00 00 cf 90 02 80 e1 fb 00 80 db cd 01 00
       1.2748e-41 -2.35619e-40 -9.0357e-41 1.65683e-40
000320 d5 b7 01 00 cc 36 02 00 5e 77 02 80 45 da 00 80
       1.57782e-40 2.03328e-40 -2.26492e-40 -7.83e-41
000330 4f 1f 01 80 ce e8 01 00 63 59 01 00 c1 15 02 80
       -1.03067e-40 1.7535e-40 1.23901e-40 -1.91475e-40
000340 e0 95 01 00 83 2a 02 00 b0 71 02 00 f1 29 01 00
       1.456e-40 1.98921e-40 2.24454e-40 1.06881e-40
000350 20 9a 02 00 15 84 02 80 ef 58 02 80 dd a5 01 00
       2.3896e-40 -2.31053e-40 -2.15574e-40 1.51336e-40
000360 ac 67 02 00 cc 28 02 00 32 13 01 00 9a 04 02 00
       2.20861e-40 1.98306e-40 9.8721e-41 1.85322e-40
000370 78 75 01 80 fa 13 02 80 49 40 02 00 08 86 02 00
       -1.33975e-40 -1.90837e-40 2.06732e-40 2.31752e-40
000380 c4 1a 02 80 1d 7a 02 00 85 15 02 80 3f 5a 01 00
       -1.93273e-40 2.27477e-40 -1.91391e-40 1.2421e-40
000390 c3 67 00 80 e0 c9 01 80 f0 e5 00 00 bd 3b 01 00
       -3.7223e-41 -1.64255e-40 8.2486e-41 1.13266e-40
0003a0 08 6e 02 00 1a d6 01 00 b4 5b 02 00 6a 7c 00 80
       2.23143e-40 1.6864e-40 2.16568e-40 -4.4631e-41
0003b0 ff 6d 02 00 f3 58 00 80 7d 28 02 80 22 9c 02 80
       2.2313e-40 -3.1909e-41 -1.98195e-40 -2.39681e-40
0003c0 cf 88 02 80 36 0f 02 00 f5 6f 00 80 e4 49 02 80
       -2.32749e-40 1.89128e-40 -4.0163e-41 -2.10178e-40
0003d0 82 da 00 80 57 47 02 00 ce c1 01 00 ae 86 02 00
       -7.8386e-41 2.09263e-40 1.6136e-40 2.31985e-40
0003e0 bd 49 02 80 30 4c 02 80 99 b7 01 00 00 7f 00 80
       -2.10123e-40 -2.11002e-40 1.57698e-40 -4.5559e-41
0003f0 cb 95 02 00 68 7e 00 00 77 68 02 00 9a 13 02 80
       2.37407e-40 4.5346e-41 2.21146e-40 -1.90703e-40

funsion_block_stream1_stage_3_prediction_block.1.bias f4 [3]
000000 b6 48 02 00 8f 6d 00 00 78 0a 02 80
       2.09755e-40 3.9302e-41 -1.87426e-40

funsion_block_stream1_stage_2_before_PB.0.weight f4 [10, 32, 1, 1]
000000 45 9d 02 00 20 85 00 80 d5 1a 00 00 0f 36 02 80
       2.40089e-40 -4.7756e-41 9.626e-42 -2.03064e-40
000010 bc 42 02 00 a3 8f 02 80 64 59 02 00 40 3c 00 00
       2.07611e-40 -2.35198e-40 2.15738e-40 2.1614e-41
000020 1e 49 02 80 be 52 02 00 e0 43 00 80 91 41 02 80
       -2.099e-40 2.13353e-40 -2.4349e-41 -2.07192e-40
000030 47 db 01 00 6f 28 02 80 78 75 02 80 7a 0a 02 80
       1.70497e-40 -1.98176e-40 -2.25811e-40 -1.87429e-40
000040 52 7c 02 80 14 3b 02 00 6f d4 01 80 23 04 01 00
       -2.28269e-40 2.04864e-40 -1.68042e-40 9.332e-41
000050 12 5f 01 80 17 81 02 00 ca 7b 00 80 64 f7 01 80
       -1.2594e-40 2.2998e-40 -4.4407e-41 -1.80583e-40
000060 e8 0f 02 00 fc 6c 02 80 4e 68 02 80 57 bb 01 80
       1.89377e-40 -2.22767e-40 -2.21088e-40 -1.5904e-40
000070 a6 56 02 00 df 24 02 80 c0 12 01 00 3e 7a 01 00
       2.14755e-40 -1.96898e-40 9.8562e-41 1.35688e-40
000080 03 1e 02 00 93 3c 02 80 1f 5e 02 80 40 78 01 80
       1.94437e-40 -2.05401e-40 -2.17435e-40 -1.34973e-40
000090 5a 94 02 00 6c 4a 02 00 55 3a 02 00 87 32 00 80
       2.3689e-40 2.10369e-40 2.04597e-40 -1.8126e-41
0000a0 af ea 00 00 b9 6a 02 80 17 a9 02 00 07 54 00 80
       8.4189e-41 -2.21956e-40 2.44329e-40 -3.0143e-41
0000b0 d8 cb 01 00 15 7e 02 80 4f 87 01 00 08 ff 00 80
       1.64961e-40 -2.28901e-40 1.40375e-40 -9.1488e-41
0000c0 62 65 02 80 f3 d6 00 00 19 52 00 80 4b 50 02 80
       -2.2004e-40 7.7109e-41 -2.9451e-41 -2.12475e-40
0000d0 72 75 02 00 80 41 02 00 04 aa 02 80 e8 39 00 80
       2.25802e-40 2.07168e-40 -2.44661e-40 -2.0773e-41
0000e0 d8 3b 02 80 6d bd 01 00 63 46 02 00 27 d3 00 00
       -2.05139e-40 1.59789e-40 2.08921e-40 7.5747e-41
0000f0 2c 1f 02 00 73 6c 02 80 af e7 01 00 0d 5c 02 00
       1.94853e-40 -2.22575e-40 1.74948e-40 2.16693e-40
000100 ad a1 02 80 e6 b9 01 00 de ee 00 80 79 b7 01 00
       -2.4167e-40 1.58523e-40 -8.569e-41 1.57653e-40
000110 7c b8 01 00 67 7d 02 00 a6 de 01 80 ba 2c 02 80
       1.58016e-40 2.28657e-40 -1.71707e-40 -1.99716e-40
000120 db 94 01 00 17 6e 02 80 b6 25 02 80 0e f2 00 00
       1.45235e-40 -2.23164e-40 -1.97199e-40 8.6833e-41
000130 73 af 01 80 e7 a8 00 80 f0 a2 02 00 95 8c 01 00
       -1.54775e-40 -6.0591e-41 2.42122e-40 1.42267e-40
000140 ef cc 00 00 9f 3e 02 00 04 36 02 80 78 3c 02 00
       7.3516e-41 2.06135e-40 -2.03048e-40 2.05363e-40
000150 b2 46 02 80 41 71 02 80 34 4f 02 00 14 19 02 80
       -2.09032e-40 -2.24299e-40 2.12084e-40 -1.92667e-40
000160 06 88 02 00 66 59 02 00 d4 15 02 00 ba 07 00 80
       2.32467e-40 2.15741e-40 1.91501e-40 -2.772e-42
000170 ce 0f 02 80 89 16 02 80 9b 96 02 80 5f 71 02 00
       -1.8934e-40 -1.91755e-40 -2.37698e-40 2.24341e-40
000180 8c 50 02 00 ae 53 02 00 31 79 00 80 9b da 00 00
       2.12566e-40 2.1369e-40 -4.3475e-41 7.8421e-41
000190 bc 75 00 80 e0 a5 00 80 2e 8d 01 00 b5 4b 02 80
       -4.2235e-41 -5.9505e-41 1.42481e-40 -2.1083e-40
0001a0 f6 49 00 00 14 1a 01 80 ce 46 02 00 d8 1d 02 00
       2.6532e-41 -1.0119e-40 2.09071e-40 1.94377e-40
0001b0 24 14 00 80 1f 8e 02 80 dd 27 02 80 c8 88 02 00
       -7.225e-42 -2.34654e-40 -1.97971e-40 2.32739e-40
0001c0 ff 8a 02 00 f2 6b 02 80 1e 5e 00 00 fb 62 01 00
       2.33533e-40 -2.22394e-40 3.3763e-41 1.27343e-40
0001d0 3b 45 02 00 c0 7e 02 00 2f 47 01 00 7e 2c 02 00
       2.08506e-40 2.2914e-40 1.17371e-40 1.99632e-40
0001e0 ed 1c 02 00 fe cf 01 80 6a e4 00 00 81 a1 00 00
       1.94048e-40 -1.66449e-40 8.194e-41 5.7937e-41
0001f0 2e 34 02 80 cf 35 02 80 2a 05 01 00 9a ff 01 80
       -2.0239e-40 -2.02974e-40 9.3688e-41 -1.83528e-40
000200 76 6c 02 00 4d 3e 02 80 e0 57 00 00 32 45 02 00
       2.2258e-40 -2.0602e-40 3.1524e-41 2.08494e-40
000210 b7 c5 00 00 5e 05 02 00 92 86 01 80 be 84 01 00
       7.0927e-41 1.85596e-40 -1.4011e-40 1.39454e-40
000220 83 6a 02 80 33 66 00 80 b0 18 02 00 4e 7e 02 00
       -2.2188e-40 -3.6662e-41 1.92527e-40 2.2898e-40
000230 e8 ea 01 00 9b 8d 02 00 a8 97 02 80 26 10 00 00
       1.76104e-40 2.3447e-40 -2.38075e-40 5.793e-42
000240 3f db 01 80 11 03 01 00 bd 5b 02 80 05 45 02 00
       -1.70486e-40 9.2936e-41 -2.1658e-40 2.0843e-40
000250 f1 a8 02 80 06 80 00 80 ea c5 00 00 81 7d 02 80
       -2.44276e-40 -4.5926e-41 7.0998e-41 -2.28693e-40
000260 38 b2 01 00 ef 5e 02 80 d2 35 02 00 85 44 02 00
       1.55768e-40 -2.17727e-40 2.02978e-40 2.08251e-40
000270 3b 6e 02 80 2e 06 02 80 b0 75 00 80 50 50 02 80
       -2.23214e-40 -1.85888e-40 -4.2218e-41 -2.12482e-40
000280 d5 67 01 80 54 68 02 00 ab 4a 02 00 06 39 02 80
       -1.29083e-40 2.21097e-40 2.10457e-40 -2.04127e-40
000290 36 82 02 00 83 61 02 00 a3 54 02 00 59 00 02 80
       2.30382e-40 2.18652e-40 2.14033e-40 -1.83796e-40
0002a0 c4 91 02 00 66 76 01 80 43 51 02 80 a7 db 01 00
       2.35962e-40 -1.34309e-40 -2.12822e-40 1.70632e-40
0002b0 73 43 02 80 9e 3a 02 80 49 1a 01 80 0c 6d 02 00
       -2.07867e-40 -2.04699e-40 -1.01265e-40 2.2279e-40
0002c0 bf 1d 00 00 6a 84 02 00 1c 8d 01 80 d8 4c 02 80
       1.0671e-41 2.31172e-40 -1.42456e-40 -2.11237e-40
0002d0 05 13 02 80 77 b6 01 80 ad 76 02 80 07 4d 02 80
       -1.90494e-40 -1.57292e-40 -2.26244e-40 -2.11303e-40
0002e0 2b 6c 02 00 71 8d 01 00 76 74 02 80 59 14 02 00
       2.22474e-40 1.42575e-40 -2.2545e-40 1.9097e-40
0002f0 37 3f 01 80 4b 95 00 00 2e 65 02 80 ea 58 02 80
       -1.14513e-40 5.3556e-41 -2.19967e-40 -2.15567e-40
000300 20 25 02 00 10 a8 00 00 57 7a 02 80 97 51 02 80
       1.96989e-40 6.029e-41 -2.27558e-40 -2.1294e-40
000310 77 fa 01 00 85 19 02 80 e3 19 02 00 53 88 02 00
       1.81685e-40 -1.92826e-40 1.92957e-40 2.32575e-40
000320 c7 49 02 00 bc 48 02 80 70 a2 02 80 fc 6d 02 80
       2.10137e-40 -2.09763e-40 -2.41943e-40 -2.23126e-40
000330 c3 7c 02 00 d5 1a 02 80 c3 02 02 00 82 30 00 00
       2.28427e-40 -1.93297e-40 1.84662e-40 1.7401e-41
000340 5c 24 02 80 9b 2c 02 80 10 f8 00 00 c9 ee 01 80
       -1.96714e-40 -1.99672e-40 8.8988e-41 -1.77495e-40
000350 b8 0f 02 00 e2 64 02 00 50 a2 02 80 d9 3f 01 80
       1.8931e-40 2.19861e-40 -2.41898e-40 -1.1474e-40
000360 c7 16 01 80 94 64 02 80 73 b3 01 80 6e 80 01 80
       -1.00006e-40 -2.19752e-40 -1.5621e-40 -1.37907e-40
000370 14 47 02 80 80 56 02 00 8b 4b 02 80 7f a8 02 00
       -2.09169e-40 2.14701e-40 -2.10771e-40 2.44116e-40
000380 b9 7e 02 80 06 90 01 00 f8 62 02 80 e2 18 02 80
       -2.2913e-40 1.43501e-40 -2.19174e-40 -1.92597e-40
000390 80 83 02 80 01 69 02 00 cc 31 02 80 ea 82 02 80
       -2.30844e-40 2.21339e-40 -2.01535e-40 -2.30634e-40
0003a0 51 90 02 00 c4 18 02 80 d3 e7 01 80 a6 73 02 00
       2.35442e-40 -1.92555e-40 -1.74998e-40 2.25158e-40
0003b0 f5 05 01 00 ea 43 02 00 6b 12 02 00 dc 51 02 00
       9.3972e-41 2.08034e-40 1.90278e-40 2.13037e-40
0003c0 a6 0b 02 00 ac 4c 02 00 76 c8 01 00 03 c7 01 80
       1.8785e-40 2.11176e-40 1.63747e-40 -1.63227e-40
0003d0 8d f6 01 80 36 60 02 80 a3 76 02 80 c1 85 01 80
       -1.80281e-40 -2.18185e-40 -2.2623e-40 -1.39817e-40
0003e0 f5 1a 02 00 07 47 02 80 fe 5b 02 00 b6 58 00 80
       1.93341e-40 -2.09151e-40 2.16672e-40 -3.1823e-41
0003f0 64 52 00 00 7a 27 02 80 1f ce 01 80 6e a8 02 80
       2.9556e-41 -1.97833e-40 -1.65778e-40 -2.44092e-40

funsion_block_stream1_stage_2_before_PB.0.bias f4 [10]
000000 58 f5 01 80 98 57 02 80 54 79 02 00 54 7d 00 00
       -1.79848e-40 -2.15094e-40 2.27195e-40 4.4959e-41
000010 fb f4 01 00 ec 5a 02 00 b1 12 02 80 06 43 02 00
       1.79718e-40 2.16288e-40 -1.90376e-40 2.07714e-40
000020 fe 0b 02 00 ac 45 02 80
       1.87973e-40 -2.08665e-40

funsion_block_stream1_stage_2_prediction_block.1.weight f4 [3, 160]
000000 e8 64 01 80 0b 79 00 00 65 64 01 00 ff 53 00 80
       -1.28034e-40 4.3422e-41 1.2785e-40 -3.0132e-41
000010 01 45 02 00 d7 46 00 80 03 3a 02 80 ef 6e 02 00
       2.08425e-40 -2.5413e-41 -2.04482e-40 2.23466e-40
000020 98 e4 00 00 c1 93 01 80 3c 32 02 80 7f 1b 02 80
       8.2004e-41 -1.4484e-40 -2.01692e-40 -1.93535e-40
000030 6d 20 02 80 99 6b 02 00 90 e3 01 00 fb 5f 00 80
       -1.95303e-40 2.2227e-40 1.7347e-40 -3.4431e-41
000040 c4 68 00 80 e5 7c 02 00 5e 32 01 00 e0 25 00 80
       -3.7583e-41 2.28475e-40 1.09904e-40 -1.3587e-41
000050 86 1d 01 00 e4 7b 00 80 fa 43 02 00 27 95 01 00
       1.02427e-40 -4.4444e-41 2.08056e-40 1.45341e-40
000060 99 06 00 80 05 6f 02 80 79 0b 02 00 16 b7 01 00
       -2.367e-42 -2.23497e-40 1.87787e-40 1.57514e-40
000070 bd 0a 00 00 ef 4c 02 00 13 76 00 80 69 47 02 80
       3.852e-42 2.1127e-40 -4.2357e-41 -2.09288e-40
000080 45 35 02 80 5a a2 02 00 6e 6f 02 80 97 07 00 00
       -2.0278e-40 2.41912e-40 -2.23644e-40 2.723e-42
000090 a9 6b 02 80 a5 f2 01 00 c5 fe 01 80 20 43 02 80
       -2.22292e-40 1.7888e-40 -1.8323e-40 -2.07751e-40
0000a0 7d f8 01 00 f8 41 00 80 f0 71 01 00 1a 2e 02 80
       1.80976e-40 -2.3665e-41 1.32709e-40 -2.00209e-40
0000b0 37 1a 01 00 e5 06 01 80 66 e0 01 00 77 0f 01 00
       1.0124e-40 -9.4309e-41 1.72334e-40 9.7383e-41
0000c0 81 62 00 80 97 20 02 00 cb 35 02 00 89 8a 01 80
       -3.5337e-41 1.95362e-40 2.02968e-40 -1.41533e-40
0000d0 90 c1 00 00 65 70 02 80 1b d8 01 00 56 b8 01 80
       6.9437e-41 -2.2399e-40 1.6936e-40 -1.57963e-40
0000e0 10 66 02 80 5a 1b 00 80 52 68 02 00 37 f4 00 00
       -2.20284e-40 -9.812e-42 2.21094e-40 8.7608e-41
0000f0 79 f3 01 00 76 e6 01 80 8d 15 02 80 78 b2 01 00
       1.79177e-40 -1.7451e-40 -1.91402e-40 1.55858e-40
000100 86 51 00 80 8c 8a 01 80 3a 2a 00 80 e5 00 00 00
       -2.9245e-41 -1.41537e-40 -1.5148e-41 3.21e-43
000110 1a 72 01 80 6d 6a 00 80 d4 24 01 80 56 2e 00 80
       -1.32767e-40 -3.8178e-41 -1.05047e-40 -1.6622e-41
000120 a6 26 02 00 f5 6c 00 00 68 cc 01 80 96 7e 00 00
       1.97535e-40 3.9086e-41 -1.65163e-40 4.541e-41
000130 81 71 02 00 11 47 02 00 cf 4f 02 00 f1 8e 00 80
       2.24389e-40 2.09165e-40 2.12301e-40 -5.1278e-41
000140 4c 4b 00 80 e7 de 01 00 1b 41 02 80 3e 3e 02 00
       -2.7011e-41 1.71798e-40 -2.07026e-40 2.05999e-40
000150 99 57 00 80 63 83 02 00 c3 7b 02 00 b9 86 02 00
       -3.1424e-41 2.30804e-40 2.28068e-40 2.32e-40
000160 99 2d 01 00 4e 3d 00 80 ac 50 02 00 1b 9e 00 80
       1.08193e-40 -2.1992e-41 2.1261e-40 -5.6718e-41
000170 82 f6 01 00 19 58 00 80 33 54 02 00 87 4d 00 00
       1.80266e-40 -3.1603e-41 2.13876e-40 2.7812e-41
000180 29 4d 02 00 9f ad 00 00 66 6d 02 80 65 0c 02 00
       2.11351e-40 6.2284e-41 -2.22916e-40 1.88117e-40
000190 aa 45 02 80 0e 1a 02 80 1f 01 02 00 f7 5b 00 80
       -2.08662e-40 -1.93018e-40 1.84073e-40 -3.2991e-41
0001a0 00 0a 00 00 4e 7e 02 00 f8 01 00 80 43 06 00 80
       3.587e-42 2.2898e-40 -7.06e-43 -2.246e-42
0001b0 63 16 00 80 90 27 00 80 dd 55 00 00 95 c1 00 80
       -8.031e-42 -1.4192e-41 3.0802e-41 -6.9444e-41
0001c0 91 08 02 00 28 f8 01 00 19 04 00 00 6c 98 02 80
       1.86744e-40 1.80857e-40 1.47e-42 -2.3835e-40
0001d0 b6 6b 01 00 db 43 00 00 72 47 02 80 0f 88 01 00
       1.30475e-40 2.4342e-41 -2.09301e-40 1.40644e-40
0001e0 60 32 01 00 fb 31 00 00 a2 99 02 00 40 2b 00 00
       1.09907e-40 1.793e-41 2.38784e-40 1.5515e-41
0001f0 77 1d 02 00 3a 36 02 00 a2 db 01 00 d9 3e 02 80
       1.94241e-40 2.03124e-40 1.70625e-40 -2.06216e-40
000200 56 a9 01 80 31 f3 01 80 f1 94 02 00 aa 37 02 80
       -1.52582e-40 -1.79076e-40 2.37101e-40 -2.0364e-40
000210 93 68 02 00 c1 36 02 80 9a 32 00 80 bb 51 02 00
       2.21185e-40 -2.03313e-40 -1.8152e-41 2.1299e-40
000220 6b 7e 00 00 c8 40 02 00 43 75 02 80 3d 9d 00 80
       4.535e-41 2.0691e-40 -2.25737e-40 -5.6406e-41
000230 2e e1 01 00 89 1e 00 00 9c 37 02 00 db 09 02 80
       1.72615e-40 1.0954e-41 2.0362e-40 -1.87206e-40
000240 e7 34 00 80 68 1d 02 80 32 76 02 00 0d 98 02 00
       -1.8978e-41 -1.9422e-40 2.26071e-40 2.38217e-40
000250 49 30 00 80 2d 69 02 80 95 5e 02 00 57 47 02 80
       -1.7321e-41 -2.21401e-40 2.176e-40 -2.09263e-40
000260 07 8f 02 00 45 39 01 00 9a 74 02 80 a4 e6 01 80
       2.3498e-40 1.1238e-40 -2.255e-40 -1.74574e-40
000270 24 77 01 00 54 a6 01 80 03 38 02 00 50 5d 00 80
       1.34575e-40 -1.51503e-40 2.03764e-40 -3.3474e-41
000280 94 77 02 00 e3 5f 02 80 bc 8f 02 00 c2 2b 02 80
       2.26568e-40 -2.18069e-40 2.35233e-40 -1.99368e-40
000290 ff 49 02 80 89 a8 00 00 b4 48 02 00 ee af 00 00
       -2.10216e-40 6.0459e-41 2.09752e-40 6.3112e-41
0002a0 3e 15 02 00 e0 5c 02 80 2a 61 02 80 9b 54 02 00
       1.91291e-40 -2.16988e-40 -2.18527e-40 2.14022e-40
0002b0 d9 3c 02 00 93 41 02 80 65 ff 01 80 a7 a5 02 00
       2.05499e-40 -2.07195e-40 -1.83454e-40 2.43096e-40
0002c0 0b 1b 02 00 2a 49 02 00 b2 bf 01 00 3b 21 01 00
       1.93372e-40 2.09917e-40 1.60603e-40 1.03756e-40
0002d0 ba 88 00 80 6b 08 02 80 ef a5 00 00 cb ec 01 00
       -4.9048e-41 -1.86691e-40 5.9526e-41 1.76781e-40
0002e0 86 0d 01 00 41 3c 02 00 3c 6c 02 80 ee 3e 02 80
       9.6687e-41 2.05286e-40 -2.22498e-40 -2.06246e-40
0002f0 a3 91 01 80 90 98 00 00 e7 53 02 00 e4 73 02 80
       -1.4408e-40 5.4729e-41 2.1377e-40 -2.25245e-40
000300 0e 89 02 00 6f 61 01 80 7a a4 02 00 f0 62 02 00
       2.32837e-40 -1.26788e-40 2.42674e-40 2.19163e-40
000310 3f f3 00 00 f6 0d 01 80 48 56 02 00 d2 f4 01 80
       8.726e-41 -9.6844e-41 2.14623e-40 -1.7966e-40
000320 37 12 02 80 b8 fb 01 80 1b b7 00 00 ba 39 02 80
       -1.90205e-40 -1.82135e-40 6.5686e-41 -2.0438e-40
000330 e5 16 01 00 dd 0b 02 80 c2 49 02 80 ba 6c 02 80
       1.00049e-40 -1.87927e-40 -2.1013e-40 -2.22675e-40
000340 62 18 00 00 fb 2d 00 00 e3 64 02 80 81 65 02 00
       8.747e-42 1.6495e-41 -2.19862e-40 2.20084e-40
000350 b6 b8 01 80 53 0f 02 80 62 98 02 00 e2 5b 02 80
       -1.58097e-40 -1.89168e-40 2.38336e-40 -2.16632e-40
000360 df 3e 02 00 3a 3f 02 00 be 6a 01 80 3f 1f 02 00
       2.06225e-40 2.06352e-40 -1.30127e-40 1.9488e-40
000370 20 88 01 00 cf 3e 02 00 bb 7e 02 00 7e 1b 02 00
       1.40668e-40 2.06202e-40 2.29133e-40 1.93533e-40
000380 42 51 02 80 a7 12 02 00 86 80 02 80 a1 e7 01 80
       -2.12821e-40 1.90362e-40 -2.29777e-40 -1.74928e-40
000390 7a 44 02 80 3f fa 00 00 fb 3c 00 00 2c 94 02 80
       -2.08236e-40 8.9771e-41 2.1876e-41 -2.36825e-40
0003a0 1c 9e 02 00 cd 49 02 00 71 54 02 00 c8 7d 02 80
       2.4039e-40 2.10146e-40 2.13963e-40 -2.28793e-40
0003b0 92 3d 02 80 de b1 01 00 27 ff 00 00 e6 3b 02 00
       -2.05758e-40 1.55642e-40 9.1531e-41 2.05159e-40
0003c0 7e 7e 01 00 53 7e 02 00 60 03 02 00 46 21 02 00
       1.37212e-40 2.28988e-40 1.84882e-40 1.95607e-40
0003d0 f3 de 01 00 fb eb 01 00 ab 1e 02 00 d0 26 02 80
       1.71815e-40 1.7649e-40 1.94673e-40 -1.97594e-40
0003e0 e4 90 00 80 02 00 02 00 4f 6f 02 80 79 ee 01 00
       -5.1977e-41 1.83674e-40 -2.23601e-40 1.77383e-40
0003f0 e8 65 02 00 5f f4 01 00 41 90 02 00 93 87 02 80
       2.20228e-40 1.795e-40 2.3542e-40 -2.32306e-40

funsion_block_stream1_stage_2_prediction_block.1.bias f4 [3]
000000 fe 5f 00 80 11 79 01 00 46 68 02 00
       -3.4436e-41 1.35266e-40 2.21077e-40

funsion_block_stream1_stage_1_before_PB.0.weight f4 [10, 32, 1, 1]
000000 5d 51 05 2d 0d a5 92 3e e8 c9 95 bd 78 2c 02 00
       7.578241e-12 0.2864155 -0.07313901 1.99623e-40
000010 54 98 91 bd 58 d2 41 be ca f1 05 bd 9a 99 a2 b9
       -0.071091324 -0.18927896 -0.03270129 -0.0003101349
000020 96 42 03 bd 21 df cd bc 3e 43 01 00 f2 d1 e5 bc
       -0.032045923 -0.02513081 1.15957e-40 -0.028054211
000030 af 9b 3c be b3 c3 19 bd 50 e8 00 00 f4 72 11 bd
       -0.18418764 -0.03754015 8.3338e-41 -0.03551002
000040 90 71 01 00 9a 36 bd bd a2 5c 66 b9 73 a0 25 3e
       1.32574e-40 -0.0923893 -0.00021969018 0.16174488
000050 68 3c 00 80 46 5e a5 bc 80 4e 82 bb d8 36 00 00
       -2.167e-41 -0.020186555 -0.003976643 1.9674e-41
000060 85 5f 39 ae 2c e6 c4 bd 71 99 b4 3c 04 ba 7a 3e
       -4.214897e-11 -0.09614214 0.022045823 0.24485022
000070 9c 34 00 80 d6 bf 1e be c0 a1 c1 bd 62 7d 00 00
       -1.8873e-41 -0.15502867 -0.094546795 4.4979e-41
000080 ea 55 58 a9 6e 13 19 be 33 48 3d bd 6a 1d 01 00
       -4.8036153e-14 -0.14948818 -0.046211433 1.02387e-40
000090 ce 16 b3 bd fd 1a ae bd a9 91 78 3c da 59 ec b8
       -0.08744584 -0.08501241 0.015171447 -0.00011270093
0000a0 ec df 29 3c d7 8f 0e 3d a1 31 02 00 c3 31 72 bd
       0.010368329 0.034805145 2.01474e-40 -0.059129488
0000b0 3e f2 c8 3c 3e 05 a6 3d c2 2a 00 80 db 35 16 be
       0.024529573 0.081064686 -1.5339e-41 -0.14668982
0000c0 de b9 00 80 e1 4a 6a bd 3a b6 8e ba 6f 8e f4 bc
       -6.6677e-41 -0.057200316 -0.0010888048 -0.029853074
0000d0 b2 6b 00 00 fd ff 7b bd 8d 03 31 bd 44 4d 00 00
       3.8634e-41 -0.061523426 -0.043216277 2.7718e-41
0000e0 4f dc 6b b2 8b 5a 97 bd cc 0c 1b bc 3e b4 96 3e
       -1.3728893e-08 -0.073903166 -0.0094635 0.2943439
0000f0 2c 2b 00 00 59 db a2 3e 1a d3 82 bc a4 dc 00 00
       1.5487e-41 0.31807974 -0.015969802 7.9151e-41
000100 d2 56 81 31 bb 8a 00 be 82 66 82 bd 39 96 00 80
       3.7642645e-09 -0.12552921 -0.06367208 -5.389e-41
000110 c8 0c 43 3e bd 9c a4 bd 82 6b 41 3e 48 c6 d3 ba
       0.19047844 -0.08037708 0.18888667 -0.0016157115
000120 6c 8f 3b bc 23 35 25 bc e0 52 00 00 f4 b0 5b 3e
       -0.011447769 -0.01008347 2.973e-41 0.21454221
000130 ea ea 9c 3e 7f 9c 60 3e c7 e8 00 00 bf a8 2f be
       0.30647975 0.21934699 8.3505e-41 -0.17154215
000140 d1 3c 01 00 11 b2 12 3d 47 73 c4 3b 84 9b 85 be
       1.13652e-40 0.03581435 0.0059951874 -0.26095212
000150 ed a5 8d 1e 09 09 af be 31 04 70 be 59 74 00 00
       1.4997581e-20 -0.3418658 -0.23439099 4.1738e-41
000160 42 32 18 b6 f1 50 dd be be d8 95 3d 31 5f a0 be
       -2.267902e-06 -0.43225816 0.07316731 -0.31322625
000170 d5 49 00 80 ee 74 32 be 40 aa fd bd b6 d0 00 80
       -2.6486e-41 -0.17427418 -0.12385988 -7.4871e-41
000180 ae 38 54 36 6f fb 7b be 7c 17 6e be 4d ab 00 80
       3.1623454e-06 -0.24607633 -0.23251146 -6.1451e-41
000190 92 bf 1e 3b 5e 9f 50 be 0b b9 24 be 3d 9f 05 3a
       0.0024223072 -0.20373294 -0.16086213 0.0005097276
0001a0 b8 c0 77 3e bd d8 f0 bb 5f e5 00 00 e4 8d a6 3d
       0.2419461 -0.007350056 8.2283e-41 0.08132532
0001b0 c1 43 a0 be b8 8b d2 bd 8e 60 00 00 a3 08 e2 3e
       -0.31301692 -0.102805555 3.4637e-41 0.44147214
0001c0 4d e9 00 80 fd 14 8c bd 6b 3b 8b b7 d4 30 01 3e
       -8.3693e-41 -0.06839941 -1.659776e-05 0.12616283
0001d0 7d be b8 0d 06 24 24 be 5b 61 af be 9c 07 79 11
       1.1385734e-30 -0.16029367 -0.34253964 1.9644981e-28
0001e0 e3 66 f2 34 57 4d 65 3d 71 14 94 3d 9d 1e f3 3d
       4.5150873e-07 0.05598196 0.072304614 0.118710734
0001f0 36 b9 00 80 d7 fe 22 be a8 a0 a6 bd ec 3a 00 80
       -6.6441e-41 -0.15917526 -0.081361115 -2.1137e-41
000200 a9 4c a8 b5 b4 44 87 3e ad 1a ff 3d b4 28 01 00
       -1.2539286e-06 0.26419604 0.1245626 1.06437e-40
000210 6f b9 8b bb 6c 27 88 3d 36 05 04 bd ac 3e b5 bb
       -0.0042640488 0.06648144 -0.032231532 -0.0055311527
000220 52 19 00 be bd 69 4c bd d5 4d 00 00 6f 54 4b be
       -0.12509659 -0.049905527 2.7921e-41 -0.19856428
000230 da a7 d6 bd 72 20 88 3c 83 c6 00 00 21 f4 5e 3e
       -0.10481234 0.016617034 7.1213e-41 0.21772815
000240 9a 13 00 00 ce 85 c8 bd 4d 8b f0 b7 d4 68 f7 3d
       7.032e-42 -0.09791146 -2.8675096e-05 0.12080541
000250 af 43 00 80 ab 39 81 be b3 93 7e 3e 37 48 00 00
       -2.428e-41 -0.2523931 0.2486103 2.5906e-41
000260 dd a0 01 b3 69 ab 3e be c9 10 45 bd fd cb b5 bd
       -3.0181457e-08 -0.18620075 -0.04811171 -0.08876798
000270 4a 02 00 80 51 19 91 bc b9 24 14 3d b4 c8 00 80
       -8.21e-43 -0.017712267 0.036167834 -7.1999e-41
000280 4b 7a 2f b0 e5 df f7 bd c8 26 cf bd 51 19 01 00
       -6.383842e-10 -0.12103251 -0.10114819 1.00917e-40
000290 d5 25 31 3e 48 15 d5 bd eb f0 8e 3d f0 e9 97 ba
       0.17299588 -0.1040445 0.06979545 -0.0011590105
0002a0 4a 00 87 3d 66 df 70 3c 6a c5 01 00 76 22 2e be
       0.06591852 0.0147017 1.62654e-40 -0.17005333
0002b0 64 99 a4 3e 95 88 8d be cf 29 00 80 14 38 cc bd
       0.32148278 -0.27643266 -1.4998e-41 -0.099716336
0002c0 62 22 02 00 ae f4 50 3e 4c 1d 21 ba 22 b4 b6 bc
       1.96005e-40 0.20405838 -0.0006146028 -0.02230269
0002d0 df 6a 00 80 ef b0 c7 3b 1b 1b 2b 3e 88 49 00 00
       -3.8338e-41 0.00609409 0.16709559 2.6378e-41
0002e0 72 17 c7 32 9a 74 f4 bd 4b d8 0b bd 01 5e ba bd
       2.317731e-08 -0.119363025 -0.03414182 -0.09099961
0002f0 db b9 00 00 4c 8c 22 bd 30 ac 66 bd 1c 66 00 80
       6.6672e-41 -0.03968458 -0.056316555 -3.663e-41
000300 e4 d3 53 b1 6f b5 0e 3e cb 3a 9d 3e 3c f7 00 80
       -3.0824987e-09 0.13936399 0.30708918 -8.8691e-41
000310 e2 4e a7 bd b2 bc c0 3e 6a ae b6 bd 8a 0d c4 ba
       -0.081693426 0.37643963 -0.089199856 -0.0014957648
000320 3a 1a 84 bd 3d fc 75 38 b8 d2 00 00 fc 99 85 3d
       -0.06450315 5.8647467e-05 7.5592e-41 0.06523511
000330 f8 4c 83 3b 13 aa 91 bd 69 4c 00 80 98 77 7f 3d
       0.004006978 -0.07112517 -2.7411e-41 0.062369913
000340 6d 15 00 00 11 b2 b4 bd e5 b0 0c 38 15 04 14 bd
       7.686e-42 -0.08823026 3.3543347e-05 -0.036136705
000350 43 8a 00 80 a4 d4 0e be 18 7e 60 be 84 7b 00 00
       -4.9599e-41 -0.13948303 -0.21923101 4.4309e-41
000360 81 fb 26 b4 a7 70 05 bd 8c a8 8c bb 29 b0 77 be
       -1.5551451e-07 -0.032578137 -0.0042925533 -0.24188294
000370 7c 16 00 80 06 2c 17 be c0 67 b3 bd 86 23 00 80
       -8.066e-42 -0.14762887 -0.08760023 -1.2743e-41
000380 06 3a ab a7 07 a9 04 be e3 d1 b7 3d db 5d 00 80
       -4.7524943e-15 -0.12955104 0.089755796 -3.3669e-41
000390 a3 ef 79 3e 49 42 97 3c 82 68 e0 bb 1e 6f bc ba
       0.2440782 0.018464224 -0.006848396 -0.0014376377
0003a0 84 3e eb 3d 95 50 42 bd 6f e4 00 80 41 3f b1 bd
       0.11486533 -0.04744013 -8.1947e-41 -0.08654643
0003b0 86 1f 89 3d 3b 51 54 3d 62 0d 00 00 9b cb 13 be
       0.06695466 0.05183528 4.801e-42 -0.14433138
0003c0 49 8b 00 80 1c a9 6e 3d 9d 87 32 37 d2 85 a7 bd
       -4.9966e-41 0.058266744 1.0641202e-05 -0.08179821
0003d0 69 84 00 80 eb 70 93 3e 2d de d4 3d d1 06 00 80
       -4.75e-41 0.28797087 0.10393939 -2.445e-42
0003e0 32 d7 84 b4 1a cf 57 bd 4d 72 52 3d 32 d3 4c bd
       -2.474349e-07 -0.05268774 0.051378537 -0.0500061
0003f0 79 b5 00 80 2f b5 20 bd a7 18 0b bd a2 0a 01 00
       -6.51e-41 -0.03923529 -0.033959057 9.565e-41

funsion_block_stream1_stage_1_before_PB.0.bias f4 [10]
000000 e2 c8 c7 3c ce d6 92 bd 8f f4 38 3e da dd ef 3d
       0.02438778 -0.07169877 0.18062042 0.11712237
000010 47 d0 fe bc 50 09 e6 3c 6d be 0e bd 17 a0 01 be
       -0.031105174 0.028080612 -0.034849573 -0.12658726
000020 0a 32 0f 3d 4b 88 24 3b
       0.03495983 0.002510565

funsion_block_stream1_stage_1_prediction_block.1.weight f4 [3, 640]
000000 aa c1 db bc c1 60 40 bd e8 a0 82 3d 1a 64 87 bc
       -0.026825745 -0.04696727 0.06378347 -0.016527224
000010 b5 5d de bd 25 12 35 3c 9c e1 8f bc fe 2c 93 bc
       -0.10857717 0.011051689 -0.017563634 -0.01796579
000020 5a 5c 31 bd c4 ec 77 3c e2 21 c6 3a a0 f1 20 3d
       -0.043300964 0.015132133 0.0015116299 0.03929293
000030 b3 8d 81 bd 75 2d 8f bb ea 19 ab bb 64 2d 82 3d
       -0.06325855 -0.0043694326 -0.005221595 0.06356314
000040 4e e7 70 3b 57 0b 89 3d 0b 28 7a 3b 45 17 30 3c
       0.0036758962 0.06691616 0.003817084 0.010747735
000050 45 09 91 3d 18 bc 48 3d c3 bf bb 3d 67 65 75 3d
       0.07081846 0.049007505 0.09167435 0.059911158
000060 5e 33 7f 3c 3d d8 63 3c e5 ee 9f 3d e2 3d 44 3c
       0.015576212 0.013906536 0.078092374 0.011977645
000070 2a 5b 8d 3c 0a f8 8d ba d3 0a db 3a c3 63 a3 3d
       0.017255384 -0.0010831368 0.00167116 0.079780124
000080 88 12 b0 3d 06 c5 ba 3c 47 bc 2a 3d 4a d7 93 3b
       0.085972846 0.022799026 0.04168346 0.0045117484
000090 82 8f 84 bc a1 fa ba bb 8f eb 32 bc 9c ef e1 3d
       -0.016181711 -0.005706147 -0.010920419 0.1103203
0000a0 2d dc 03 3a 53 a6 95 3c fb f0 9a 3d cb 07 11 bd
       0.0005030062 0.018267786 0.075654946 -0.035407823
0000b0 32 89 a4 bc 70 41 8e b8 a7 b4 a7 3c bb 7c 76 3d
       -0.020084951 -6.783276e-05 0.020471884 0.060177546
0000c0 5f d3 96 3d 40 da 5f bb 3a ac d9 bb 8b 12 c0 bc
       0.073645346 -0.0034157187 -0.0066428455 -0.023446342
0000d0 94 2b f0 3a 8d 83 16 3e 63 12 57 3d 5e 47 a3 3d
       0.0018323534 0.1469862 0.05250777 0.079725966
0000e0 e0 35 a3 3c 9e 70 cc bc f9 ea 93 3c 3f 0b 19 3d
       0.01992315 -0.024956044 0.01805638 0.03736424
0000f0 ac 6f d7 bd 3f e4 bf 3d c1 f8 c5 3d cb 95 2c 3d
       -0.105193466 0.09369706 0.09666587 0.04213504
000100 b1 52 a7 3c b4 92 2f 3d 80 50 51 bc e3 93 3c ba
       0.020425173 0.042864516 -0.01277554 -0.00071936677
000110 f3 6f 43 bd 91 1c 61 3b ee 99 cb bb 1d a7 00 00
       -0.047714185 0.0034349302 -0.006213418 5.9949e-41
000120 61 1f 45 3d 98 fc a0 3d c9 9d 19 bb 5d bd d9 3c
       0.04812563 0.078606784 -0.0023439995 0.026579553
000130 9f 58 2f bc e0 3a f7 3c 3a 98 ec bc b0 45 73 37
       -0.010702281 0.030179441 -0.028881181 1.4500154e-05
000140 bc 85 20 3d 7f 08 b8 3d e8 0f ea 3c cc 78 97 3d
       0.03919004 0.089859955 0.028572038 0.07396087
000150 6e a3 3d 3d b6 69 0a 3d 9e 99 c8 3c 61 1c 9a b9
       0.046298437 0.03379222 0.024487313 -0.00029394313
000160 9d 4a dd 3d 18 5d 17 3d e9 b0 e9 3c b8 5f aa 3c
       0.10805247 0.036954015 0.02852674 0.020797595
000170 1c c8 d9 bc b7 85 d4 3d 1e 70 3b bc 1b 10 89 b1
       -0.026584677 0.103770666 -0.011440305 -3.9890558e-09
000180 ab a8 93 3d 9e de 58 bc b5 42 a6 3c c4 36 35 bc
       0.07209905 -0.01323667 0.02029548 -0.01106042
000190 0a 45 e5 bb 0e 7c 29 3d 0b 02 ab 3c 6d 39 c9 39
       -0.0069967555 0.041378073 0.020874998 0.00038380493
0001a0 b3 bb a8 bc 53 c2 fe bc 49 72 12 bc 31 ef 30 3b
       -0.020597314 -0.03109852 -0.0089383805 0.0026998038
0001b0 bb 0a c0 3c a9 39 7a 3d c1 d1 ec 3b d8 8e e1 b8
       0.023442617 0.061090145 0.007227153 -0.00010755443
0001c0 34 15 a2 3d ea bf f2 bb a4 e6 7a 3d 6f f0 03 bc
       0.079142004 -0.007408132 0.061255112 -0.008052929
0001d0 9c 45 60 3c 3e 67 28 bd 7f 7f b0 bc a8 05 02 b6
       0.013688471 -0.041114084 -0.02154517 -1.9374802e-06
0001e0 17 56 0e 3d 41 c7 ba 3c 47 dc 38 3d 9a 36 10 3d
       0.03475007 0.02280009 0.045131948 0.035208322
0001f0 44 77 1e 3b 73 0e 99 bc 75 da 5b bd 97 4a 47 bb
       0.0024179975 -0.018683648 -0.053675134 -0.003040945
000200 55 85 b6 bc 51 79 93 3d ca 26 24 bd 41 25 99 3d
       -0.022280375 0.07200874 -0.040076055 0.07477809
000210 89 84 25 3b 97 d4 b9 bc 0f 62 be bc 71 21 3a 3c
       0.0025256 -0.022684379 -0.023240117 0.011360512
000220 c8 4c 75 3d 6a 8c fe bc f9 86 20 3d 4a 1f 96 3d
       0.059887677 -0.031072814 0.03919122 0.07330187
000230 c7 10 54 bc 14 53 90 3d 42 e0 ba bc 50 c1 37 3c
       -0.012943453 0.07047096 -0.022812013 0.011215523
000240 76 a2 03 bc e4 7d c6 3d 2f a4 2c bd b5 3f 12 bc
       -0.008034339 0.096919805 -0.042148765 -0.008926322
000250 f5 9d de 3c 4f cb f3 bc 5e 92 49 bd e4 e3 26 3c
       0.02717493 -0.029760031 -0.049211852 0.010186169
000260 f9 e1 2b bc c2 fa c3 3b b2 29 48 3c 62 ef df bd
       -0.010490888 0.0059808204 0.012216972 -0.109343305
000270 d1 24 0e bc 75 1f fd bb 11 e1 3a 3d 46 46 d8 3c
       -0.00867577 -0.0077246972 0.045624796 0.026400696
000280 ca 84 6a ba b0 60 0f 3d e8 d3 3f bd 11 07 91 3d
       -0.0008946179 0.035004318 -0.04683295 0.07081426
000290 6a 7b 2f be 3a 99 a8 3d 9d 2c 0d bc 16 a6 19 bd
       -0.17136922 0.08232351 -0.008616594 -0.037511908
0002a0 f8 d6 15 3e 59 1a 26 bd f6 47 23 3c 64 79 c3 3c
       0.14632785 -0.04055247 0.009965887 0.023861594
0002b0 cc 4a 22 3d 4e 5e 15 3d d2 f6 87 bc e3 af 08 bc
       0.039622113 0.03646689 -0.016597185 -0.008342716
0002c0 6c 72 ce 3b 96 a4 2f bc ef c0 3e 3c aa 15 dd 3d
       0.0063002612 -0.010720393 0.011642679 0.10795148
0002d0 8c dd 55 3c a5 e4 52 bd bf a6 b0 3d 5b 18 ce 3b
       0.013053309 -0.051487584 0.08625554 0.0062895245
0002e0 14 90 f3 3a 5e 4d b9 3d 52 d4 0c 3d 3f 1d 52 bc
       0.0018582367 0.0904796 0.034382172 -0.012824356
0002f0 49 c1 53 3d c5 bb 40 3b 7e f9 ae bd 2a f4 6a 3b
       0.051698003 0.0029408794 -0.085436806 0.00358511
000300 80 7c 11 3b 20 5b 5b 3d 03 63 4e 3d da 08 88 3c
       0.0022199452 0.0535537 0.050387394 0.016605783
000310 2f 03 7f bd bb 53 ab 3c 47 04 8f 3d 32 97 d8 bc
       -0.062258895 0.02091395 0.06983238 -0.026439283
000320 80 9f 94 bd fd 44 55 3d 28 b6 bb 3b 06 a7 6f bc
       -0.07256985 0.052067745 0.005728502 -0.014627224
000330 19 9b 30 3d a6 d6 02 3d 12 76 16 bd fd 81 71 bd
       0.043116663 0.031942986 -0.036733694 -0.058961857
000340 2d de 96 3d eb 66 f0 3b 22 75 1f bc 67 a3 cb 3c
       0.073665954 0.0073364875 -0.0097325165 0.02485819
000350 c5 a1 47 3d a6 89 9d bc 95 fc b9 3d 2c 62 07 3e
       0.04873826 -0.019230675 0.09081379 0.13221043
000360 34 cc 05 bd 1b 38 8f bd 14 b1 a8 3d 07 aa e8 bb
       -0.032665446 -0.06993123 0.082369 -0.007100347
000370 3c 2f b7 3d d5 1c d7 bc 9c fe 7d bc f5 4f 86 3d
       0.08944556 -0.026258865 -0.015502598 0.06558219
000380 4e ec a8 bc 78 4c 22 bd 3f f3 0d 3d 37 1c b2 3c
       -0.020620491 -0.039623708 0.034655806 0.02174197
000390 3f d6 a2 3d 9c 59 3f 3c 4d ee 87 bc 68 7b a4 bd
       0.079510204 0.011679079 -0.016593123 -0.080313504
0003a0 67 c1 ef 3c 41 2c 14 3e 93 84 d8 3a 7f 49 66 3d
       0.029267026 0.14470007 0.0016519002 0.056222435
0003b0 f3 ca d3 bc 63 6c 1f 3e f1 be dc bc 1e 6f 8b 3d
       -0.02585361 0.1556869 -0.026946517 0.06808303
0003c0 8c ea 02 3d ec c5 05 bd f8 89 a5 3d 90 40 d3 3c
       0.031961963 -0.032659456 0.08082956 0.025787622
0003d0 2d a8 a4 3d 8c ce 08 3d 23 3e 09 3d 71 c5 51 bd
       0.080398895 0.033400103 0.033506524 -0.051213685
0003e0 17 49 fe 3c 31 cf 6a 3c 60 68 68 3c 91 18 9b 3c
       0.031040711 0.014331625 0.014185041 0.018932613
0003f0 75 2e 5e 3d 1f 25 58 bd 6b 24 4c bc 0a a3 16 3c
       0.054243524 -0.052769776 -0.012459855 0.009194145

funsion_block_stream1_stage_1_prediction_block.1.bias f4 [3]
000000 06 a9 08 3f d1 61 cf 3e de db 1b 3f
       0.5338291 0.40504315 0.60882366

funsion_block_stream2_stage_3_before_PB.0.weight f4 [10, 16, 1, 1]
000000 a8 27 02 00 c5 a9 00 00 5f 27 02 80 26 4a 00 00
       1.97897e-40 6.0902e-41 -1.97795e-40 2.66e-41
000010 9c c1 01 00 e5 84 01 00 17 ff 01 80 1d 0d 00 80
       1.6129e-40 1.39509e-40 -1.83344e-40 -4.704e-42
000020 93 14 02 80 32 5d 02 00 d6 73 02 80 7a 4a 02 80
       -1.91052e-40 2.17103e-40 -2.25225e-40 -2.10388e-40
000030 d5 f1 01 00 a7 4e 02 00 3c a2 02 00 71 5c 02 00
       1.78588e-40 2.11886e-40 2.4187e-40 2.16833e-40
000040 e2 47 01 80 f3 2f 02 00 8f 42 02 00 f0 c3 01 80
       -1.17622e-40 2.00872e-40 2.07548e-40 -1.62125e-40
000050 b6 3f 02 80 f6 17 02 80 83 5b 00 80 3c 78 00 80
       -2.06526e-40 -1.92267e-40 -3.2828e-41 -4.3132e-41
000060 3a 32 02 80 b2 20 02 00 11 3c 02 00 0e ba 01 80
       -2.01689e-40 1.954e-40 2.05219e-40 -1.5858e-40
000070 99 59 02 80 ff 54 02 00 4a 4e 02 00 b3 56 02 00
       -2.15813e-40 2.14162e-40 2.11756e-40 2.14773e-40
000080 22 16 00 00 8f 55 02 00 a9 41 02 80 c1 f0 00 80
       7.94e-42 2.14364e-40 -2.07225e-40 -8.6366e-41
000090 6a 43 00 00 32 d8 00 00 00 2c 02 80 86 88 02 80
       2.4184e-41 7.7556e-41 -1.99455e-40 -2.32646e-40
0000a0 bf 43 01 00 55 49 02 80 e8 b5 01 80 0a 76 02 80
       1.16138e-40 -2.09978e-40 -1.57091e-40 -2.26015e-40
0000b0 5b f5 00 00 11 79 02 00 1f 38 02 80 24 c4 01 80
       8.8017e-41 2.27101e-40 -2.03803e-40 -1.62197e-40
0000c0 3f a9 02 80 0f 22 02 00 fd 58 02 80 8f 7b 02 00
       -2.44385e-40 1.95889e-40 -2.15594e-40 2.27995e-40
0000d0 80 15 00 00 9f a9 02 00 46 48 02 00 fc 4b 00 80
       7.713e-42 2.4452e-40 2.09598e-40 -2.7258e-41
0000e0 3c a7 01 80 94 fa 01 00 b0 2a 00 80 4e a7 02 80
       -1.51828e-40 1.81726e-40 -1.5313e-41 -2.43689e-40
0000f0 bb 20 02 80 60 10 02 80 0f 98 02 80 3c 1b 02 80
       -1.95412e-40 -1.89545e-40 -2.3822e-40 -1.93441e-40
000100 c7 7a 02 00 ea b5 01 00 89 94 02 80 f0 d7 00 00
       2.27715e-40 1.57094e-40 -2.36955e-40 7.7464e-41
000110 a3 2d 00 80 62 e1 00 80 c9 e4 01 00 ef d4 01 80
       -1.6371e-41 -8.0852e-41 1.73908e-40 -1.68222e-40
000120 3a 4b 02 80 d0 c1 01 00 9f 73 01 00 ab 3c 02 80
       -2.10657e-40 1.61362e-40 1.33313e-40 -2.05435e-40
000130 f0 df 01 80 99 23 02 80 47 b5 00 80 90 36 02 00
       -1.72169e-40 -1.96441e-40 -6.503e-41 2.03244e-40
000140 21 1d 02 00 01 f5 00 80 16 0a 02 80 00 a3 01 80
       1.9412e-40 -8.7891e-41 -1.87289e-40 -1.50309e-40
000150 14 7a 02 00 5f 8a 00 80 7b 5d 00 80 2d 51 01 00
       2.27464e-40 -4.9638e-41 -3.3534e-41 1.20956e-40
000160 fa a9 00 80 85 ee 01 00 e2 9a 02 80 96 a1 02 00
       -6.0976e-41 1.774e-40 -2.39232e-40 2.41637e-40
000170 85 c3 00 80 1a 71 02 00 5c 17 02 00 cf 6e 02 80
       -7.0139e-41 2.24244e-40 1.92051e-40 -2.23422e-40
000180 cd 1e 02 00 60 62 02 80 88 26 02 00 73 07 02 80
       1.9472e-40 -2.18961e-40 1.97493e-40 -1.86343e-40
000190 6b dc 01 80 c4 52 02 80 83 44 02 00 4e 85 01 00
       -1.70907e-40 -2.13362e-40 2.08248e-40 1.39656e-40
0001a0 25 64 02 00 00 3e 02 00 56 09 02 80 f3 b7 00 80
       2.19596e-40 2.05912e-40 -1.8702e-40 -6.5989e-41
0001b0 86 99 02 00 e5 2a 00 80 46 d9 01 00 46 58 02 00
       2.38745e-40 -1.5388e-41 1.69779e-40 2.15338e-40
0001c0 d0 36 02 00 f0 c1 00 80 08 5c 02 00 7b 43 02 80
       2.03334e-40 -6.9572e-41 2.16686e-40 -2.07878e-40
0001d0 5a 54 02 80 38 24 01 00 93 f7 00 80 67 c9 01 80
       -2.1393e-40 1.04828e-40 -8.8813e-41 -1.64085e-40
0001e0 e7 94 02 00 ba 40 02 80 d2 53 02 80 29 69 02 00
       2.37087e-40 -2.0689e-40 -2.1374e-40 2.21395e-40
0001f0 cc 86 00 80 2c 4e 02 80 61 34 01 00 6d 8c 02 80
       -4.8356e-41 -2.11714e-40 1.10626e-40 -2.34046e-40
000200 1b 8e 01 00 af a5 02 00 e6 db 00 80 77 5f 02 80
       1.42813e-40 2.43107e-40 -7.8885e-41 -2.17917e-40
000210 35 9b 02 80 8d b9 01 00 ae 67 02 00 56 7d 02 00
       -2.39349e-40 1.58399e-40 2.20864e-40 2.28633e-40
000220 05 ab 00 00 7e 7e 01 00 6a 8a 01 00 f1 88 02 00
       6.135e-41 1.37212e-40 1.41489e-40 2.32796e-40
000230 2b a8 02 80 e2 aa 01 00 04 e5 01 80 e0 5f 02 00
       -2.43998e-40 1.53137e-40 -1.73991e-40 2.18064e-40
000240 63 1c 02 80 ce aa 01 80 a0 6a 02 00 a1 76 00 80
       -1.93854e-40 -1.53109e-40 2.21921e-40 -4.2556e-41
000250 00 29 02 00 25 73 00 00 3a 4d 02 00 73 34 00 00
       1.98379e-40 4.1306e-41 2.11375e-40 1.8815e-41
000260 9e 1d 02 00 08 cd 00 00 2e 3a 02 80 44 d8 01 00
       1.94296e-40 7.3551e-41 -2.04542e-40 1.69417e-40
000270 44 5c 00 00 d3 4b 02 80 9b 5d 02 00 ea 3d 02 80
       3.3099e-41 -2.10872e-40 2.1725e-40 -2.05882e-40

funsion_block_stream2_stage_3_before_PB.0.bias f4 [10]
000000 3f 15 02 80 6b af 01 00 37 e7 01 00 83 c3 01 00
       -1.91293e-40 1.54764e-40 1.7478e-40 1.61972e-40
000010 48 4f 02 80 3f d9 01 80 8a 37 02 00 f4 c7 00 80
       -2.12112e-40 -1.69769e-40 2.03595e-40 -7.173e-41
000020 59 f7 01 00 20 e1 01 00
       1.80567e-40 1.72595e-40
